elo_guesser.pt (torch, 180873 bytes, 14 tensors)

encoder.norm.weight f4 [20]
00000000: 3796 813f 72c3 793f 84b8 813f c794 843f
00000010: 7814 883f 27ce 873f 3c9a 843f eb21 883f
00000020: 1027 853f 9328 883f 67ac 853f cc3d 883f
00000030: efad 8e3f 77a1 8e3f 8822 883f 771f 823f
00000040: dcf5 883f 320e 853f e403 853f 33e1 853f
1.0123967 0.9756385 1.0134435 1.0357903 1.0631247 1.0609788 1.0359569 1.0635351
1.0402546 1.0637382 1.0443238 1.0643859 1.114683 1.1143025 1.0635538 1.0165852
1.070003 1.0394957 1.0391812 1.045935

encoder.norm.bias f4 [20]
00000000: 62e8 203d 196d 96bc 7ee3 98bc 6e86 243d
00000010: 9c98 253c 0c22 3339 c30c 983c c0f1 d43b
00000020: 34df 8e3b 9154 f73c 9339 c53c ac93 683d
00000030: 358b 403b e247 aebb f030 0c3c 53bb 96bb
00000040: 645d 113c d436 7bba 175d 053d 4eeb cfb9
0.039284118 -0.018362569 -0.018663164 0.040167265 0.010107186 0.00017083454 0.018560773 0.0064985454
0.004360104 0.030191692 0.024075305 0.056781456 0.002937985 -0.0053186277 0.0085565895 -0.0045999675
0.008872364 -0.000958306 0.03255948 -0.00039657432

encoder.rnn.weight_ih_l0 f4 [192, 20]
00000000: 118f febb 6741 cd3d eb1a 8dbd ecec 12be
00000010: 90ed 99bd dbb1 d93b 41dc e0bc 082f 953d
00000020: c2b4 12bd 05f4 043c e2ef 86bd e2a1 70bd
00000030: 86c0 a3bd a5a2 17bd 7981 babd 880e 91bc
00000040: b4af b73c e113 4c3d 0c68 e4bd e8f5 a3bd
00000050: bda9 443d 1dce f93d 5d12 63bc ced3 8e3d
00000060: e649 99bc 3361 6c3c 9435 e83d 18ff ebbd
00000070: 57aa 9ebd c4bb 05bd 28c7 46bd eb3e d73d
00000080: a3b0 a9bd 2b13 6dbd 2f2c b6bd 979d e7bd
00000090: c18b 93bd 62c2 dd3d c452 5f3d 2165 7b3d
000000a0: a161 8abc 7f5f 8bbd fa0c 253d f84d 09be
000000b0: 1c65 11be 429d f2bd d08c dd3c 2a36 a73c
000000c0: 7ab4 d8bd 2325 40bd 6fa1 e93c e2e7 8f3d
000000d0: ed3b 083e 8340 c93d 70fd 103d 94b7 ecbd
000000e0: ad0c f5bc 0356 18be a26b 0ebe e040 efbd
000000f0: 4b09 1c3d b230 6d3d 848e 68bd c7a6 1c3d
00000100: ee74 de3c 450f 6ebd 0121 17bd 62c1 57bc
00000110: 0f80 173d af09 ad3d a3c2 0cbe e955 b9bd
00000120: c6f2 1c3e a9b8 533e 599f 8b3d 056e 9e3d
00000130: a0c6 91bc cc4d 19be 27b9 fbbc bd56 f5bd
00000140: 536e e8bd fa31 143e 8f0c e03d 834a 07be
00000150: ae0b 05bd a27a a2bd f8e3 9fbd f108 eabd
00000160: a889 bfbb df06 febd 82f5 24bc 7aec ee3b
00000170: b9a9 413e e347 103e 6c30 26be 8597 fabd
00000180: c51f b73b e922 febc 569c 1ebe c8f7 03be
00000190: 8ad4 413e 3437 483e f800 64bd a2a7 b2bd
000001a0: c374 38be 5877 77bd d5b4 1dbe a98d 1ebe
000001b0: e6fa 89bd 356d 41bd 3643 e5bd a357 3d3b
000001c0: 1b7c d6bd e115 af3d 1410 c43c e64d 29be
000001d0: 243e b7bd 48eb 53bd 0c4b 33bd 2c6a d9bc
000001e0: 4741 3b3d 2c29 c83c e440 e1ba ab33 4dbc
000001f0: b655 cdbd d905 52bd 9d7c 28bc 282a 1ebd
00000200: 2805 bfbc 853e b3bd 1948 e2bb ac02 253d
00000210: b1be 2fbe 2d7d c4bd 8ebc f23d c7e8 713b
00000220: 67ab d23c a827 4b3c 003e 323d 88a7 d03d
00000230: 5f7a 9b3d be16 253d 7de5 a73d 2a3a 2e3d
00000240: 91e2 c2bd 61df 2fbd a4ec d33d 81a9 883c
00000250: 20ed 45bd 3d3c 8dbd b761 cebd 8099 bdbd
00000260: 2443 fa3c a982 fd3d 4371 b43d e3c8 debd
00000270: 334e c33d 3399 a3bd d7fe 3fbc b0f4 1abd
00000280: 6ff9 6abc 77ed e5bc f6de 2cbe 5d2e 81bd
00000290: 3d8c e3bb 2e8b 6b3c e5b5 34bd 3f10 723d
000002a0: e336 c7bd be2c 523a 882d f93d 665e 0dbd
000002b0: 2db4 be3d f7ca d73c 29a5 cfbd af00 c33d
000002c0: cabd 27bb cfe8 31bd fe48 e73d ba9a b8bd
000002d0: 5c43 393d ea22 ce3c 5982 163e d597 86bd
000002e0: d0ec e03c 36b8 513c 589e 81bd 70bc 6ebd
000002f0: b24f 09be 840c 003d 3350 843d 4691 413d
00000300: de50 0bbe 0052 27bd 6b86 fabd 74dc cabd
00000310: 3f96 d6bd a23b 3e3c 5767 e1bd 3072 09bd
00000320: df6d 8e3c ef38 7f3d 3a26 2bbe 9353 b6bc
00000330: 3bd8 bdbd 71a9 823d 1b5a 89bd 72fb a73d
00000340: 01df c63c f683 853b 072c bdbc 9b51 29bd
00000350: dc89 673d b4a1 633c 1458 0dbd cc90 5d3a
00000360: a22e f8bd 3611 b7bd a5b1 a23d d964 02be
00000370: 8596 63bd 826f d03d f35d 783d 4cb4 083b
00000380: 9d63 0abe ce0f f33c e0d8 edbd 80e0 83bd
00000390: 87d5 8ebd 6603 ecbc e28a b5bc f8c0 aa3d
000003a0: 99dc 0e3e 2a68 6d3e b8d4 653d 3bfb c0bd
000003b0: cb72 e53c 6787 f3bd 5e76 9dbd 91d7 b43b
000003c0: 4daa 90bc 0d0b 8a3d 0fb6 7f3d f335 13bd
000003d0: 37b4 f73d 9372 7ebd 986f 153e 4270 38bd
000003e0: c387 773d 5ecb e93c ba89 40bc af18 853d
000003f0: c66f e13d 4016 09bd c8a5 c53b 764d 593c
-0.0077685197 0.1002224 -0.068899 -0.14348191 -0.075160146 0.0066435165 -0.027448775 0.07284361
-0.035816915 0.008114819 -0.06588723 -0.058748133 -0.07995705 -0.037020344 -0.09106726 -0.017707124
0.022422649 0.049823646 -0.11152658 -0.08005887 0.048013438 0.12197516 -0.013859359 0.06973992
-0.018711995 0.014427471 0.11338344 -0.11523265 -0.077473335 -0.03264977 -0.048529774 0.105100475
-0.08285644 -0.057879608 -0.08895146 -0.11309355 -0.0720439 0.10828091 0.05452229 0.06137574
-0.016892256 -0.06805324 0.04029558 -0.13408649 -0.14198726 -0.11846401 0.027044684 0.02041157
-0.10581298 -0.046910416 0.02851936 0.0702665 0.1330411 0.09826758 0.035397947 -0.11558452
-0.02991327 -0.14876561 -0.13908246 -0.11682296 0.0380948 0.057907768 -0.05677654 0.03824499
0.027155366 -0.05812003 -0.03689671 -0.013168665 0.03698736 0.084491126 -0.13746123 -0.09049589
0.15326986 0.20675911 0.068175025 0.07735828 -0.017794907 -0.14971083 -0.030727936 -0.11979435
-0.11349168 0.1447219 0.10939895 -0.13212018 -0.03248184 -0.079335466 -0.078071535 -0.11427487
-0.0058452673 -0.12403654 -0.010068299 0.007291374 0.189124 0.14089923 -0.16229409 -0.12235931
0.005588504 -0.031022506 -0.15489325 -0.1288749 0.18928733 0.19552308 -0.055664986 -0.0872338
-0.18013291 -0.06041655 -0.15401013 -0.15483727 -0.06737308 -0.04722329 -0.1119446 0.0028891347
-0.1047289 0.08549095 0.023933448 -0.16533622 -0.08947399 -0.051738054 -0.043772742 -0.026539885
0.04571655 0.024433695 -0.0017185477 -0.012524526 -0.10026114 -0.051275108 -0.010283616 -0.038614422
-0.023317888 -0.08752159 -0.0069055674 0.04028575 -0.17162587 -0.09594188 0.1185237 0.0036912428
0.025716497 0.0123995915 0.04351616 0.10188204 0.075917 0.04030489 0.08198068 0.04253594
-0.0951587 -0.04293764 0.1034787 0.016682388 -0.048321843 -0.06896255 -0.100772314 -0.092577934
0.030549593 0.12378437 0.088106655 -0.1087816 0.095364 -0.07988205 -0.011718473 -0.03783101
-0.014341696 -0.028067334 -0.16881928 -0.06307671 -0.006944208 0.014376445 -0.04411878 0.059097525
-0.09727266 0.00080175314 0.121668875 -0.034513853 0.093117096 0.026341898 -0.10138924 0.09521615
-0.00255953 -0.043434914 0.11293219 -0.09013887 0.045230255 0.025163133 0.14698161 -0.065719284
0.027456671 0.012800267 -0.0632903 -0.058285177 -0.13409308 0.031261936 0.06460609 0.047257684
-0.13605067 -0.040849686 -0.122326694 -0.09905329 -0.10477876 0.011610897 -0.11006039 -0.033556163
0.017386375 0.062310155 -0.16713801 -0.022256648 -0.09269758 0.06379975 -0.067066394 0.08202256
0.024276258 0.004074569 -0.023092283 -0.04133759 0.056527957 0.0138935335 -0.034507826 0.00084520574
-0.121182695 -0.089388296 0.07944039 -0.12733783 -0.05556347 0.101775184 0.060636472 0.0020859418
-0.13514562 0.029670622 -0.11613631 -0.06439304 -0.06974321 -0.028810214 -0.022160951 0.08337587
0.13951339 0.23184267 0.056111068 -0.094229184 0.02800884 -0.1189106 -0.076885924 0.0055188616
-0.01765933 0.06740389 0.062429484 -0.03594012 0.1209492 -0.062120985 0.14593351 -0.045028932
0.060432207 0.028539356 -0.011751587 0.06498849 0.11007647 -0.033468485 0.0060317256 0.013263097

encoder.rnn.weight_hh_l0 f4 [192, 64]
00000000: 0aed 11be 0568 e8bd 7e3d adbb 774f e63d
00000010: 3e3e 783d b95d fd3c 24a8 50bd 5a89 173e
00000020: 4aaf 963c eaa6 803d f994 6bbb af3f fb3c
00000030: 98df 593c 2f88 0c3e 1862 cd3d bb29 213d
00000040: 76c2 633d ab30 433c c15f ec3d 414e 8e3d
00000050: 8976 d33d 2d59 31bc 4dc0 d7bd 9049 ab3d
00000060: f2e0 773d 5038 a83d 41e0 eb3d bfc0 0c3d
00000070: 3b15 e63d b36e 8abd f4a5 d03d 7842 733d
00000080: 437f ba3d 60f4 ef3d 11cd 94bd 3b7c dd3d
00000090: 2f91 bc3d c90f 20bd 1911 31bd 10d7 1ebd
000000a0: 90ee 6cbc 8a57 033d 4df0 803d c9f7 1ebd
000000b0: 06d5 13be 4ace a53d 60ad 6a3d e68c ab3c
000000c0: f075 993d 674b f23d 0c76 31bd a630 05bc
000000d0: 159a ccbb 15c1 ffbc 0817 10bd 2df3 b9bd
000000e0: 99ca 79bd a7f6 be3c 7a6a 62bc 8e6b 0abd
000000f0: d511 de3d 6afc c5ba 5b09 fd3d 6f50 dc3d
00000100: 564b bfbd 5c36 273d 1d64 1f3e 0b11 cabd
00000110: 2aa2 4bbd d3c9 a33b 99b8 25bd 92dd 7d3d
00000120: 1139 883d 0651 81bd f8bc 0fbc 9dde 203e
00000130: 380f 03be e554 e1bd 4d24 d8bd bff4 e33d
00000140: 1b3e afbd cb41 56bd 7e5a d93d d061 a9bd
00000150: a749 e23d f790 44bc eb17 18bd e9c0 383d
00000160: 5937 b5bc d1aa 7e3d 68af 153e 25ee d3bd
00000170: e73d af3d 7d1d 023e 8641 093c 955d c0bd
00000180: 4fb4 c13c ca45 cc3d 4309 f3bd a76b afbd
00000190: b423 f7bd 04ff 48bc 01b3 f8bc 7ea3 a8bc
000001a0: bad4 063e dc3d cdbc 4c23 debd 232f 86bc
000001b0: 11b4 41bd 18f0 12bd cc99 c73d 828c 8f3d
000001c0: 6981 8dbd c7cd f83d 0ad8 973d 1b5e 00bd
000001d0: 5fd6 4c3d c656 203d 69bc ddbd 41d7 fcbd
000001e0: 3bb2 d1bd 9a64 b73d 8d5b 4d3d ffd6 cc3d
000001f0: f2a9 5cbd d178 a63d c21b 413d dc2f b2bd
00000200: 662b b83c d3a6 943c d769 e6bb 7557 42bd
00000210: dc3e d8bd 366f d1bd 1d74 033e 5992 95bd
00000220: 82fe 2d3e efc2 45bd 3856 62bb 380e 2bbe
00000230: 338f 9dbc 401f d23d f73a 04be 472b 6c3d
00000240: e9f0 fdbd a059 a6bc a016 07be 7e64 f8bd
00000250: 8614 15be bbef d3bc 43fc 99bc b0c8 b6bd
00000260: 0d66 af3c e47b dd3d a706 a93d d6c1 093e
00000270: cef3 2d3d 15da 51bd 1cd5 d5bc 0223 0e3e
00000280: f856 d73c 4b07 30bd 6361 853d 6b86 26be
00000290: 6715 f63d 6f19 5d3d d4eb b2bd 4df9 00be
000002a0: e235 a63d 1f6a c13d 1e5d ee3c ca47 40bd
000002b0: 2fa7 a73d dce5 0e3d 5e1f 5f3c ff70 943d
000002c0: 8a52 ce3d 4af2 e23a 2729 c93d fc16 bfbd
000002d0: 2402 7dbd d027 6e3d 5ce3 7a3d 906d c039
000002e0: 2e99 6d3d 8819 ae3c 691c 14be ef94 733d
000002f0: e1d4 7bbd 507e 57bd 35b5 9bbc 196b 4fbc
00000300: d1cc 21bd 391a 30be 863d 863d 2594 e3bd
00000310: 90fb 93bc 31e5 973d 5251 91bc 080e 9cbd
00000320: cc3a 83bc 0ce1 5abb d390 e4bd 5ad6 40bd
00000330: b17b 463d c519 17bd c5dd 253d 0f2c 68bc
00000340: 7f39 90bd 27c0 c3bd 57d0 6d3c 877e f3bd
00000350: e2f6 edbc 0f7c 6e3d 48f1 803a 8bcb 5dbd
00000360: 44eb 96bd 57c3 ec3c 27de d4bd 9182 ea3c
00000370: fa32 c8bd 63a8 7b3d a01d 533d 35b4 de3d
00000380: f0c5 96bd 9274 483d f0ae 0abe 6c9b 1dbe
00000390: b9b8 2f3c 1699 0ebe 2738 a5bd be9e c93c
000003a0: a2bf 953d 8039 aebd b285 a7bb 9e90 bdbd
000003b0: 30d9 473d 0249 143c c361 513d ecfc b23d
000003c0: b75d 70bd cc0d 5dbd e0af e9bc 19de 553e
000003d0: 081b bc3d 8cb1 423e 9072 113e 4f40 963d
000003e0: 056b fdbd 890b cdbd ab50 b9bb 1977 cfbd
000003f0: a282 bc3c 306b c23d 064a 383b 7e48 a8bd
-0.1425058 -0.11347965 -0.0052868715 0.112456255 0.060606234 0.03092848 -0.0509416 0.14798489
0.018394131 0.06281836 -0.003594695 0.030670015 0.013297938 0.13723825 0.100284755 0.039346438
0.055605374 0.011913459 0.11541701 0.069485195 0.10325343 -0.010824484 -0.10534725 0.0836364
0.06051726 0.08213866 0.115173824 0.034363504 0.11234518 -0.067593955 0.10187903 0.05938956
0.091063045 0.11716533 -0.07265676 0.10814711 0.09207379 -0.039077554 -0.043229196 -0.03877932
-0.014461175 0.032065906 0.06295834 -0.038810525 -0.1443673 0.08095987 0.05729425 0.020941209
0.07493198 0.11830788 -0.04332547 -0.0081292745 -0.006243954 -0.031219998 -0.035178214 -0.09079585
-0.060984228 0.023310972 -0.013819331 -0.03379398 0.10843245 -0.0015105132 0.123553 0.10757529
-0.09340541 0.040823326 0.15565534 -0.09866532 -0.0497152 0.0049984246 -0.04045925 0.061978884
0.066515096 -0.06314282 -0.008773081 0.1570992 -0.12798774 -0.110025205 -0.10553799 0.11130666
-0.085567676 -0.05230884 0.10612963 -0.082706094 0.11049204 -0.011997453 -0.037132185 0.04510585
-0.022121118 0.062174622 0.14617693 -0.10348157 0.08556729 0.12706561 0.008377438 -0.09392849
0.023645548 0.09974249 -0.11867001 -0.08565455 -0.12067357 -0.012267832 -0.030358793 -0.020585772
0.13167086 -0.02505391 -0.10846576 -0.016379898 -0.047290865 -0.035873502 0.09746131 0.070092216
-0.06909449 0.12148624 0.07414253 -0.031339746 0.050009128 0.039145254 -0.10826952 -0.12345744
-0.10239073 0.08954735 0.050136138 0.10001945 -0.05387301 0.08128513 0.047145613 -0.08700535
0.022481631 0.018145954 -0.00703166 -0.047446687 -0.105588645 -0.1022629 0.12837262 -0.07303304
0.16991618 -0.048281606 -0.0034536254 -0.16704643 -0.019233322 0.10259867 -0.12913118 0.05765846
-0.123994656 -0.020306408 -0.13192225 -0.12128542 -0.1455861 -0.025871148 -0.018797046 -0.08924997
0.021410966 0.10814646 0.08253222 0.13452849 0.04246884 -0.05123337 -0.026102595 0.13880542
0.026286587 -0.042975705 0.06512716 -0.16262214 0.12015801 0.053979333 -0.08736387 -0.125951
0.08115746 0.09444069 0.029097136 -0.046943463 0.081861846 0.03488718 0.013618318 0.07248115
0.10074337 0.0017314639 0.09822302 -0.09330556 -0.06176962 0.058143437 0.061251983 0.00036702724
0.05800741 0.021252409 -0.14463963 0.059468206 -0.061482314 -0.052610695 -0.019007305 -0.012659811
-0.03950197 -0.17197503 0.065547034 -0.11112241 -0.01806429 0.07416762 -0.017738972 -0.07619864
-0.016019247 -0.0033398299 -0.111604355 -0.04707942 0.048457805 -0.03688981 0.0404947 -0.014170661
-0.070422165 -0.095581345 0.014515004 -0.118893676 -0.029048387 0.05822378 0.0009837532 -0.05414919
-0.07369092 0.028901739 -0.10393935 0.028626712 -0.09775348 0.061439883 0.051541924 0.108742155
-0.07361972 0.048939295 -0.13543296 -0.1539132 0.010725194 -0.13925585 -0.08067351 0.024611827
0.07311942 -0.08507061 -0.0051123733 -0.09256099 0.04879111 0.00905061 0.051118623 0.08739647
-0.058683123 -0.053968236 -0.028526247 0.20885505 0.09184843 0.19013041 0.14203858 0.07336485
-0.12373928 -0.10011966 -0.0056553683 -0.10130138 0.02301151 0.09493101 0.0028120293 -0.08216952

encoder.rnn.bias_ih_l0 f4 [192]
00000000: f9c9 93bd 17dd 8fbd d093 4a3d 5863 ca3b
00000010: a17c f03d f44e b4bd b697 253d 30b2 3b3d
00000020: f52b ff3c a912 703d 2636 e43d 8358 63bd
00000030: 0c5e 1f3d 23ed d43d 3a9b 363d 218a 17bc
00000040: c3c2 ad3c ed66 c93d 3f68 39bd cbf9 8cbd
00000050: ae91 e4bb 7d37 b9bc f290 0dbe 01e2 1dbe
00000060: a981 8c3d 886b aebd fe22 bd3d 9fea e43d
00000070: 461d ecbb 68d7 8cbd 13c2 36bd 2f49 cc3d
00000080: e11b b33d 6c47 f7bd d705 d3bd a2e0 a13d
00000090: 6d79 9dbd 97c8 3fbc 7936 90bd 61de d93d
000000a0: 554c e7bd e75b 21bc 17ef 0c3e 97bf 953d
000000b0: a6a3 01be 49fd f0bd 492a 7e3d dc6c 01bd
000000c0: be9b e63d 622e 823d 7d54 ed3d 1a42 b5bd
000000d0: 8d6d 993c a1c9 9ebd 1b45 e1bd 2176 28bd
000000e0: 5274 b63d 3990 ff3d f3be fb3d cccb ba3d
000000f0: 51cd 18be e5ed 173e 3869 e03d 782f 91bd
00000100: ec25 4bbd e486 e43d 8630 133e d8fa 9f3c
00000110: 61e1 043d efd4 1a3d ae2e 89bd a98b 92bd
00000120: edef 243e 39ce 1c3e 1bbd 7f3d 57a2 bf3c
00000130: 9947 623e 92f4 9d3d 8ab2 413c eb3f 30be
00000140: 6bdb 063e 1e45 ff3d 3183 0dbe caa7 ce3c
00000150: ed39 413e e73c b63d 1e27 463d fa64 a33c
00000160: 746d 2dbd f6f7 ac3d 5b63 953d 4afb c23d
00000170: 65dd d03d eeb6 b73d 8266 693d 5fc2 b4bd
00000180: 5310 683e 11b7 b43d 81fb ae3d 1b7e 883d
00000190: 9d7b 13be 46ec b13d 4203 88bd dd49 333e
000001a0: a831 773e fd77 49bd 82d6 1b3e 63b3 4d3b
000001b0: 63bc 893c c64f 04be f515 913d 6b75 dd3d
000001c0: 947d ce3d 9b1b 153e f4d2 453e 6c89 203e
000001d0: b4d8 273d c81a 303e fd9f 8b3d f7e7 433e
000001e0: ae2e 3c3e 22ab 16bc 1be0 573d a768 a13d
000001f0: cfb3 f63d 9696 f83d 38f6 3a3e 1405 773e
00000200: 180a 863b 6c16 a3bb 2974 e7bd 7b5d 60bc
00000210: a489 843d 1212 5dbd f2c0 0fbc c7de eebd
00000220: 30c3 843d 1664 05be c69a b23c adbc d03d
00000230: 113e 67bc 7bd4 c2bd bc89 4ebd 1204 89bd
00000240: 1e67 7dbd e0ca f53d e804 07bc 7e04 243d
00000250: c196 e8bd e25b ebbc 68dd 4f3c 1b62 bcbd
00000260: 8936 8bbd ef27 f93d 78c4 ddbd 0a00 8ebc
00000270: bb48 06be 414f c73d 7b8f 0a3e 372c 833d
00000280: 8b86 d33d 25ac bdbc 864b 9a3b 4d55 f63d
00000290: a97a 213e af86 d33d cc33 013e cbb4 b43d
000002a0: 9ef9 493d df78 9ebd ebf2 d7bd 4081 58bc
000002b0: f636 89bd b04d e8bd c971 21bc d3c5 cf3d
000002c0: 4499 c8bd f266 00be 0959 ca3d e9a7 37be
000002d0: 1d09 babd edb9 4f3d 4b7d ecbd 93f8 9f3d
000002e0: f513 97bd 786e 713d 6c62 18be 3987 143e
000002f0: d04f ffbc 04af 203e f520 3fbd fadb 743d
-0.072162576 -0.070245914 0.04945737 0.0061763935 0.11742521 -0.088041216 0.040427886 0.04582423
0.03114889 0.058611546 0.111431405 -0.055504333 0.03890805 0.10396793 0.04458163 -0.009249241
0.021211034 0.09834085 -0.045265432 -0.06883582 -0.006975374 -0.022609467 -0.13824823 -0.15418245
0.06860668 -0.08516604 0.0923519 0.11177563 -0.007205638 -0.06877023 -0.044618677 0.09974896
0.08745552 -0.120741695 -0.10303848 0.079041734 -0.07689176 -0.011705539 -0.0704164 0.106381185
-0.11293856 -0.009848571 0.1376308 0.073119335 -0.12660083 -0.1176706 0.062052045 -0.031597957
0.11260174 0.06356503 0.115883805 -0.088504985 0.018728996 -0.077533014 -0.10999509 -0.04112828
0.08908905 0.1247868 0.1229228 0.091209024 -0.14922072 0.14836843 0.10957569 -0.07089132
-0.049596712 0.11158541 0.14373979 0.019528791 0.0324415 0.037800726 -0.066983566 -0.07155544
0.1610715 0.15313043 0.062436204 0.02339284 0.22097625 0.07712664 0.011822352 -0.17211883
0.13169639 0.12464355 -0.13819577 0.025226492 0.18869753 0.08898335 0.04837715 0.01994561
-0.04234071 0.08445732 0.07294341 0.09520586 0.10198478 0.08970438 0.056982525 -0.08826136
0.22662477 0.0882398 0.08544064 0.06664678 -0.14402623 0.08687644 -0.066412464 0.17508645
0.24140036 -0.049186695 0.15218547 0.003138744 0.016813463 -0.12921056 0.07084266 0.10813411
0.10082546 0.14561312 0.19318753 0.15677422 0.04097815 0.17197716 0.06817625 0.19131456
0.18377182 -0.009196075 0.052703958 0.07881289 0.120460145 0.12138097 0.18257987 0.24123031
0.0040905587 -0.004977038 -0.11301453 -0.0136941625 0.06471565 -0.05397231 -0.008774029 -0.11663585
0.064825416 -0.13026461 0.021802317 0.10192237 -0.014113919 -0.09513184 -0.050424322 -0.066902295
-0.06186592 0.12001586 -0.008240916 0.040043347 -0.11356879 -0.028730337 0.012687065 -0.091984
-0.06797511 0.1216582 -0.10828489 -0.017334003 -0.13113682 0.09731913 0.13531296 0.06404918
0.103283964 -0.023153374 0.00470871 0.120279886 0.15769447 0.10328423 0.12617415 0.08823546
0.04931032 -0.07737898 -0.1054438 -0.013214409 -0.06699936 -0.11342943 -0.009853789 0.10145154
-0.09794858 -0.1253927 0.09880263 -0.17935146 -0.090837695 0.050714422 -0.11547335 0.07811084
-0.073768534 0.05894324 -0.14881295 0.14504708 -0.031165987 0.15691763 -0.04666229 0.0597801

encoder.rnn.bias_hh_l0 f4 [192]
00000000: db58 173d b23f a7bd 94ab a1bc 00a9 023d
00000010: f366 fc3d acd8 cabc 0c7e 853d 1a2e 193e
00000020: 9f1d d83d 8231 28be 37a4 d73b 2888 93bd
00000030: 6ccf 11be 073d 7f3c a60f 293e a8cc 293b
00000040: 7f58 693b 822b 99bd 6e58 53bd 1561 23bc
00000050: ce49 373d eb95 f8bc 5ea2 e9bd ab86 d93b
00000060: 6621 03be 1869 f33c d965 41bc b7f3 153e
00000070: 779f b2bd c974 c33d fabf efbc 65fd b7bd
00000080: a6bf a9bc 7395 fabc ad46 bbbb 18fd 803d
00000090: 81c9 003e ba8f 323d 024e 213d a16e c3bd
000000a0: a3e9 a6bd 4d53 b4bd 1015 9a3d cc67 d03d
000000b0: dab8 e5bd b9e0 41bd aa20 43bc 84c9 61bd
000000c0: 0f99 93bd 3de9 d63d 002c 59bc 110a d6bd
000000d0: 4119 83bc b60c babd 57ba e93d ac2b e93c
000000e0: 91ea 6abd 632f 9a3d 224c f13d 0300 8fbc
000000f0: d8d7 bb3c f4b8 60bd b52a ea3d 9308 4c3d
00000100: 7287 253c 3b66 493e ba7d ac3d ebba 5d3d
00000110: d5ff 593e 4ed8 163e bbaf c3bd 080e 73bc
00000120: 07bb e53d 6b05 17bd dcb3 1b3e 4316 203e
00000130: ce9b e03c 2184 0b3e e08c 62b7 d12e b33c
00000140: 0a7c ca3d 91a3 8b3d 2867 04be 3f05 743d
00000150: 42f5 573e e0f3 e03d 958a 863c d3af 403d
00000160: e589 abbc 0597 3abd a1b4 c73d 8e61 0e3c
00000170: faa3 163e 22c4 333d ddd8 6f3d e844 7abd
00000180: 1754 eb3d f4d8 093e f3fa 983a de67 3d3e
00000190: f807 2b3c 01a1 253d 0690 0ebe 7dfb 023e
000001a0: 6551 5e3d 65bf e63d 57a2 87bc 9cb9 a63d
000001b0: e958 273e ad76 15be 60f0 2e3d 55c8 3e3e
000001c0: 7931 893d 089f 9e3b a1b1 f63a 9319 cc3d
000001d0: 0533 823c d0f6 143e 7002 0f3e d0ca 0b3e
000001e0: 3ca5 6a3d 716f 0a3e 069d 523e 793a bcbd
000001f0: 741f 003e 7ab3 8fbc b65d c23d a651 a83c
00000200: a510 e73d 0e17 9b3d 78a6 063d 76c2 c6bd
00000210: 1887 703b 349d 823d 402c 86bb fc84 2dbe
00000220: 2c3a 423d fb42 a53d 72fc a03d 1c26 843d
00000230: 07c6 c93d ea8a 09be c820 60bd 0b48 a23d
00000240: 4a1d bcbc 27b5 d7bd 2a6d 2cbe 5096 6c3d
00000250: 7c40 733b 126e 313c dbf7 71bd 2ed9 91bc
00000260: 7eab e0bd 2313 9c3d dcb0 c1bd bfcc f7bc
00000270: 8b59 d7bd ceba 7fbd 83fc 153d 6634 563d
00000280: 9fc5 a43d 007b b33d ea3f d0bc 6ddb 173d
00000290: 575b 9aba 5477 f2bd 003c 3abb ec45 ab3d
000002a0: e002 f93c 860a 03bd 71ca 1abe 57db c9bd
000002b0: 2d20 8c3c 2bd5 a83d 55a4 87bd 263b b2bd
000002c0: c746 9f3d 0207 7cbc 1ad5 aa3d c46b 7cbd
000002d0: 30ff c23d ea36 9e3d d96b a2bd b789 603d
000002e0: d1d4 103d 5a35 1f3e 8e80 09be 5a16 fa3d
000002f0: a898 83bc b4e0 813d 9d97 9a3a 2e58 8ebd
0.036949974 -0.08166446 -0.019735135 0.031899452 0.123243235 -0.02476152 0.06518182 0.14958993
0.10552525 -0.16425136 0.006580855 -0.07203704 -0.14239281 0.015578515 0.16509876 0.0025909338
0.0035605726 -0.074790016 -0.051598005 -0.009971877 0.04474812 -0.030344924 -0.11407922 0.006638368
-0.12805709 0.029713199 -0.0118040675 0.14643751 -0.08721822 0.095437594 -0.029266346 -0.08983878
-0.020721268 -0.030588841 -0.0057152123 0.06298274 0.12576868 0.0435941 0.039381035 -0.09542585
-0.081500314 -0.08804951 0.075235486 0.10176048 -0.11216898 -0.047333453 -0.011909643 -0.05512382
-0.07206928 0.104937054 -0.013255119 -0.10451139 -0.016003253 -0.09084456 0.11412495 0.028463207
-0.057352606 0.075285695 0.11782099 -0.01745606 0.02293007 -0.054863885 0.11433927 0.049812865
0.010103093 0.19667904 0.08422418 0.054133337 0.21288998 0.14730951 -0.09555002 -0.014834888
0.11217313 -0.0368704 0.1520533 0.15633492 0.027418043 0.13624622 -1.350345e-05 0.02187291
0.0988694 0.06818307 -0.12929976 0.059575316 0.21089652 0.109840155 0.016423503 0.04704268
-0.020939777 -0.04555418 0.09751249 0.008690251 0.1471099 0.04388822 0.058556426 -0.06110087
0.11490648 0.13461667 0.0011671468 0.18496653 0.010438912 0.04043675 -0.13922128 0.12791248
0.054276843 0.11266974 -0.016556902 0.08140871 0.1634251 -0.14596052 0.04270971 0.18631108
0.06698889 0.0048407353 0.0018821248 0.099658154 0.015893469 0.14547276 0.13965774 0.13651586
0.057286486 0.13519074 0.20567712 -0.0919084 0.12511998 -0.017541636 0.0949053 0.020546746
0.112824716 0.07572757 0.0328736 -0.09705059 0.0036701616 0.0637764 -0.0040946305 -0.16945261
0.04741876 0.08069416 0.0786065 0.06452581 0.09852224 -0.13431898 -0.054718763 0.07923897
-0.022963185 -0.10532599 -0.16838518 0.057760537 0.0037117293 0.010829465 -0.059074264 -0.017803755
-0.109702095 0.076208375 -0.094575614 -0.030248998 -0.10515126 -0.06243401 0.036617767 0.052296065
0.08045506 0.08763695 -0.025421102 0.037074495 -0.0011776489 -0.11839166 -0.002841711 0.08362946
0.030396879 -0.031992458 -0.15116288 -0.09856289 0.017105186 0.082437836 -0.06623141 -0.08702688
0.077771716 -0.01538253 0.08341427 -0.06162621 0.095213294 0.07725318 -0.079307266 0.054818835
0.035359208 0.15547696 -0.13427946 0.122112945 -0.016064003 0.06341687 0.0011794452 -0.06950413

encoder.rnn.weight_ih_l0_reverse f4 [192, 20]
00000000: 72f2 f1bd 4c7d 0dbe 8cb9 ed3d 30f4 cd3d
00000010: ae2a b3bd 43af dc3c 9d09 713d 6ebb 14be
00000020: d3ae 43bc e33e 033c dc00 f7bd ac18 9abd
00000030: 3a8f 183e 9703 263e 540f b9bc b1a5 9a3d
00000040: c289 293d 9456 8ebd 9ec9 bfbd 1a0a 803d
00000050: 8803 9d3c 5668 e23d 2492 923c 4920 56bc
00000060: c609 153c 1e36 fdbd d231 bcbc 22ec df3b
00000070: f7ae f0bd c74f 7f3d c411 4ebd c999 0fbe
00000080: f2d6 b93d 1d2e 8cbc e765 f7bd 1097 20bd
00000090: 47e0 893c 6879 a33d 1a85 12bd 0b1d 833d
000000a0: b39e 483d 290f 86bd 95cd 043d 1f51 29be
000000b0: 6d88 053c 442c 013e 7554 253d b732 023d
000000c0: ce88 d23b 4d3b e93d da5f 1b3e dca1 dbbc
000000d0: 850a 093d 5052 c3bd 90da 073e c3df 183d
000000e0: e826 1ebc 4fc5 fe3d ff62 5abd fd90 dd3d
000000f0: 4083 873c 1c5a 44bd c9ab 8fbd fc57 d9bd
00000100: 8504 623c 1302 8b3d 21e0 073c 2736 9ebc
00000110: 57de ebbc 2259 043d 0aba c53d 2001 2f3c
00000120: 76ac 2abe 8487 fabd 54ad 8abd 0809 3e3d
00000130: af96 39bd 1ac5 6f3d 04df 3c3a 23ad e93d
00000140: 61c7 25be 66d0 04be fab8 973d 8584 7ebc
00000150: 7f0f 89bd 8d64 38bd 0d1a f83d ee00 0a3e
00000160: 77b7 e13d 0f61 023e e334 c03d 2faa 023e
00000170: 813e c33d c2ec ffbc 6d89 7ebc 13ed d13d
00000180: 9261 cb3c 628e 123e b98d 193e 09eb ff3d
00000190: a536 c7bd 8112 10bd 93c0 283e 0ecb d3bc
000001a0: 763c 053e a046 ca3d e8fa c8bd 0965 7a3d
000001b0: ea08 3d3d a15d 093c 0ecd f53d 011c a2bd
000001c0: 59e6 e63d aa4f cf3d e915 213d 82b6 fc3d
000001d0: 4f80 403d c2c9 f4bc 75af 88bd 5591 113e
000001e0: e736 7bbd 07c8 833c 3608 e73c 8d89 65bc
000001f0: d457 fc3c bdb2 c13b 1bb9 27bd 5ade 093e
00000200: 6467 123e ac7b b63d 0720 663c 0a38 ce3d
00000210: 4fb3 d43d d831 37bd be54 86bd 6505 c2bd
00000220: 6ec0 03bd 8abe 7cbd d848 dabc d829 b5bb
00000230: da2c f93c 2c40 2f3e 8be3 153d 5fdb a43d
00000240: bdc6 dfbd 74f0 00be bb5d 8bbe 7bbd 2abe
00000250: f318 7fbd 504e fbbd 64ee d6bd a104 d5bc
00000260: fcbd c93d 68c2 2f3d 9a90 9dbd e766 8cbe
00000270: 19fc 33be e844 19be f6d1 17be 1349 8fbe
00000280: 9242 05be 5b08 933d 7a99 89bb ded3 453d
00000290: f755 af3d b78d ad3d d08b f13d 7ca5 a23d
000002a0: c3bb a03c a367 ca3c dcda 03bd 8379 e43d
000002b0: bdff 343e a500 293e 6c0b 04bd b9d5 d03d
000002c0: df59 15bd 2d68 acbd feab 163e c16a c23d
000002d0: b35f 70bd feab 883d f176 a23d c27d 51bc
000002e0: 90bb 61bc 5fdc a33c e711 d33c 4d09 b5bc
000002f0: ba9b 94bc d29d bcbd 2130 8b3c 7f71 11be
00000300: eda0 013d 922b f6bd a222 b6bd 9a5a b23c
00000310: 982c d1bd 9847 95bd ba74 a1bd 0a43 c2bd
00000320: 4a98 fcbd 5f7c 0bbe 2f20 82bd b9f7 32bc
00000330: 9c84 b63d 6cc3 283e 45e0 173e 39e7 113e
00000340: 989c 0d3e 685b 093e 3e5f 443e c373 033e
00000350: 70cf 5b3d 1a94 2c3d 98d1 1c3e 548d 153e
00000360: 909b 6a3e 02e6 da3d 472f 0d3e ebca d43d
00000370: 71e8 b63d d291 2a3d d22d d5bb 8a77 2cbd
00000380: 2987 d2bd 6b7b fb3b 0c98 b23d 83ea acbd
00000390: 18ca 183d fb23 eebc a27d 383d af48 873b
000003a0: 1509 6e3d c64d a93d aacd 273d c8b7 6fbc
000003b0: 2461 d13d cb7e c6bd dee9 8bbb ee36 02be
000003c0: 546e 8bbd 6a12 e7bd 2cd0 24bd e10a 8c3d
000003d0: a133 5ebc cce7 70bd 52ec 9abd ea5c 93bb
000003e0: df8a 90bd e9b4 11bc d8a4 d13d f2bd b13d
000003f0: 120b 023d 517b 4dbd 310a febd fce4 90bd
-0.11813821 -0.13817328 0.11607656 0.10056341 -0.08748375 0.02693904 0.05884706 -0.14524624
-0.011943537 0.008010599 -0.12060711 -0.07524237 0.14898387 0.16212307 -0.022590317 0.075511344
0.04139114 -0.06950107 -0.09364627 0.06251927 0.019166723 0.11055057 0.01789195 -0.013069221
0.009096568 -0.12363838 -0.022972975 0.006833569 -0.11752122 0.06233194 -0.05030991 -0.14023508
0.09074201 -0.017111832 -0.12079983 -0.039206564 0.016830577 0.07982141 -0.035771467 0.06402024
0.048979472 -0.0654586 0.03242262 -0.16534851 0.008150202 0.12614542 0.040363748 0.031786647
0.006425 0.11388264 0.15173283 -0.026810579 0.033457298 -0.09537184 0.13266969 0.03732277
-0.009652831 0.124399774 -0.053317066 0.1081867 0.016542077 -0.047937497 -0.07015187 -0.10612485
0.013795023 0.06787505 0.008293183 -0.019312931 -0.028792543 0.032311566 0.09654625 0.010681421
-0.16667351 -0.12232879 -0.06771341 0.04639533 -0.04530972 0.05853758 0.0007204863 0.11409976
-0.16189338 -0.12970123 0.07408328 -0.015534525 -0.06692409 -0.045017768 0.12114344 0.13476917
0.11021321 0.12732337 0.09385087 0.12760232 0.09533406 -0.031240825 -0.015535695 0.102502964
0.024826799 0.14312127 0.14995469 0.12496001 -0.097272195 -0.035173897 0.16479711 -0.02585366
0.13011345 0.09876752 -0.098134816 0.06113151 0.04615108 0.008384139 0.12002002 -0.079154976
0.11274404 0.101226166 0.039327536 0.12339498 0.046997365 -0.029881362 -0.06674091 0.14215596
-0.061331656 0.016086591 0.028202157 -0.014009845 0.030803598 0.0059112 -0.040948015 0.13463727
0.14297253 0.08910307 0.014045722 0.10069282 0.10385763 -0.04472527 -0.06559132 -0.09473685
-0.032165937 -0.06170515 -0.026646063 -0.00552867 0.030416895 0.17114323 0.036593955 0.08049654
-0.10926578 -0.12591726 -0.27219948 -0.16673844 -0.062279653 -0.12270796 -0.10494688 -0.026003184
0.0985069 0.04291001 -0.07693596 -0.27422258 -0.17576636 -0.14967692 -0.14826187 -0.2798544
-0.13013676 0.07179328 -0.004199204 0.048297755 0.08561318 0.084742956 0.11794245 0.0794172
0.019620782 0.024707621 -0.032191142 0.11155989 0.17675681 0.16504152 -0.032237455 0.10197014
-0.03646266 -0.084183075 0.14714047 0.09493018 -0.058685016 0.0667343 0.079328425 -0.012786331
-0.013777629 0.020002542 0.025765372 -0.022099162 -0.018140662 -0.09209789 0.016990723 -0.14203452
0.03164761 -0.12020029 -0.088933244 0.021771718 -0.10213584 -0.07289046 -0.07883592 -0.09485443
-0.12333734 -0.13621663 -0.06353795 -0.0109233195 0.08912012 0.16480798 0.14831646 0.1424836
0.13829267 0.13413775 0.19176957 0.12837128 0.053664625 0.04213343 0.15314329 0.14604694
0.22910905 0.10688402 0.13787566 0.10390266 0.089310534 0.04164297 -0.0065057063 -0.04210619
-0.10279686 0.0076746247 0.08720407 -0.08443167 0.037302107 -0.029069891 0.045041688 0.0041285376
0.05811413 0.08266787 0.04096762 -0.014631219 0.10223606 -0.096921526 -0.0042698225 -0.12716267
-0.06808153 -0.11282809 -0.04023759 0.068380125 -0.013562114 -0.05881481 -0.07564606 -0.00449716
-0.070577376 -0.00889323 0.102365196 0.08678807 0.03174884 -0.05016643 -0.124042876 -0.07074925

encoder.rnn.weight_hh_l0_reverse f4 [192, 64]
00000000: fb8a bebc a96f eebd a959 cabd 821b cd3d
00000010: 7803 f5bd ca7d 353c 622d 1f3e 3057 d53d
00000020: c51f 143d 9a0a 83bd 17d0 45bc b7fd c83d
00000030: d0d0 82bd c73c e23d 2660 8e3d c7ac f2bc
00000040: cda0 1bbd 39d8 3d3d 66e9 f1bd 6946 9f3d
00000050: d41f ad3d 0fac febd afa2 083e 903d 023e
00000060: 3784 8e3d a545 bb3d bbd0 da3d 42b4 3cbd
00000070: dc0c f73b 3bbc 983c 8b13 bbbd a833 82bb
00000080: f850 173d 8a3c 293c 0bb8 12be 7670 093d
00000090: b5ee c73c cc27 8b3d 2427 353d bade 713d
000000a0: efdf 313d fee8 873d 0c00 44bd 59b9 0dbd
000000b0: 1aaa a63d 6254 8e3d 9dfd 50bc 0692 f63c
000000c0: ce44 74bc b687 55bc f9b9 15bd e27e 073e
000000d0: 8b5d b2bd c8ec 123d 7c93 7c3d fcee 57bc
000000e0: 876e 69bd dd68 123e 9321 ef3b 0ada 5e3d
000000f0: d3aa 903d fb5b 87bd 9046 893c d819 00bb
00000100: 72b8 eb3b 2f40 fcbd fdcb a53d fa40 a13b
00000110: 5d16 1b3d 9669 d7bb 1e65 973d 405c 203e
00000120: be0e 5bbd 7374 c3bd e414 b23b 74e8 71bd
00000130: 364a 3a3d d04d a9bc ce62 663d 2b0b f53d
00000140: 929d a9bd 9adb f4bd 0bc9 b7bd 2dee 0d3d
00000150: 292e d13a 48fd e43d 687b fe3d 35ba 51bd
00000160: 3c46 dd3c e591 2fbd 89f7 853d c004 dbbc
00000170: 6239 26bd 83b2 483d 2029 ed3c 774c a4bd
00000180: c5e3 6f3c a2f3 b73d 4871 dcbd ef17 073e
00000190: 6708 073b e2da bf3b cd2d 24bd c0b5 d4bc
000001a0: ec68 dabc 6213 48bd ac1a a23c 53f7 203e
000001b0: 0b40 a13d a8c7 f93c 238d 8dbd 4e9d c2bd
000001c0: cc28 91bd d89c 09bd 8db8 20be 9859 f93d
000001d0: a547 11be 0c1d 75bc b8cf 113e bb63 f13d
000001e0: 3564 4f3d f898 a03d 9059 9f3d 11f3 8a3d
000001f0: fbab 27be d812 833d 4de4 a7bd a278 963d
00000200: 28e7 263d 8162 8dbd f34b 84bd 17de f93d
00000210: 211d 36bd 8025 f4bd f3f1 8abd 61f6 893d
00000220: 3cff 863a c6e0 0dbd 5f01 18be bb81 bfbd
00000230: 37f1 ac3d 918a 4d3d ce51 f6bd 50df bcbd
00000240: 0525 aebd 069a de3d a08b f6bd 6ace 843d
00000250: bba3 373c 8ad4 5b3d 90a4 9b3c e20c 0cbe
00000260: 12e6 00be 5cf5 343d c6c8 c9bd 904e 99bd
00000270: 832f 4fbd ae63 fabd d189 b53d bc91 c43d
00000280: 795b fdbd 6625 24bd 2c8c aebc fe45 e0bc
00000290: d649 073d ac5d 803b 92bb aebd 6f6c 023a
000002a0: 6b6e fab9 8219 833d 0e9e dbbd deaa dcbd
000002b0: 3379 5bbd 9ba0 e2bb 12ae dd3d 8b3e 533d
000002c0: 5643 93bd ab2d 2e3c a955 40bd 3acb a1bd
000002d0: 1215 393d 007b 2fbd acf2 85bd 075e 103e
000002e0: d76e c9bd 1b13 08be b1e9 5b3d 2576 083e
000002f0: 51e8 ab3d d557 2cbd 130c e0bd 9093 3d3d
00000300: 986e c9bc f22b 22bc 0940 a43d 218e 83bd
00000310: f735 20bd 85fe b63a 957e 9ebd 84fc ae3d
00000320: 5cb4 de3d b7d3 413d 4d6c e3bd 4959 a8bc
00000330: 0346 9cbc 0a89 683d fbea 023d 8e92 7bbc
00000340: 4318 dbbd 694d 1e3e 0e5b c5bc 8afb 043e
00000350: b61b 3bbd dbf9 ec3d ac3f 90bd 114d 33bd
00000360: 52c8 d9bd 3fd6 16bd ba3d d2bd 3c64 313e
00000370: 2c09 c43d 3068 e2bd 5284 073e 6bd2 3c3d
00000380: 2143 cb3d 7f70 1fbe 1728 7fbd a59d 1abe
00000390: 2f69 483d 87ce 9abd f038 d738 8ef9 5b3d
000003a0: b0dc f73d c120 5ebc c62f 8d3c 11bb edbd
000003b0: c616 543d 5466 17be 2635 bebd 69af e73d
000003c0: 74e1 0abe 113b ae3d 2d65 b53d 4bcf 01bd
000003d0: 5d41 aa3d 116e 173e 0e84 19be 2d4f a3bd
000003e0: 1236 ecbc 1016 2abe 6d4e 96bd 405d 103d
000003f0: a866 0e3e ba22 1bbe 1b86 00bd ce06 693c
-0.02325963 -0.11642391 -0.098803826 0.10015012 -0.11963552 0.011077354 0.15544656 0.1041702
0.03616311 -0.063985065 -0.012073538 0.09814017 -0.06387484 0.110467486 0.069519326 -0.029623402
-0.03799515 0.046348784 -0.11812095 0.077771015 0.08453336 -0.12435161 0.13343309 0.12718797
0.06958812 0.09144143 0.106843434 -0.046070345 0.0075393748 0.018644443 -0.09134587 -0.003973443
0.036942452 0.010329375 -0.1432802 0.033554517 0.024405817 0.067947 0.04422678 0.0590503
0.04342645 0.066362366 -0.047851607 -0.03460059 0.08137913 0.069496885 -0.012755779 0.030098926
-0.014908982 -0.013032844 -0.03655431 0.13231996 -0.08709248 0.035870343 0.06166409 -0.013179537
-0.056990173 0.14297815 0.0072977035 0.054407157 0.07063832 -0.06609341 0.01675728 -0.0019546654
0.0071936185 -0.123169295 0.08095548 0.004921076 0.037863124 -0.006573866 0.073923334 0.1566019
-0.053480856 -0.09543695 0.0054346193 -0.059059575 0.04548093 -0.020666987 0.05624657 0.11965021
-0.08282007 -0.11955948 -0.08973893 0.03465097 0.0015959191 0.11181122 0.124258816 -0.05120297
0.02701103 -0.042863745 0.06541354 -0.026735663 -0.04058207 0.048998367 0.028950274 -0.08022397
0.014641707 0.08982016 -0.10763794 0.13192724 0.0020604373 0.0058549503 -0.04008274 -0.025965571
-0.026661359 -0.04884661 0.019788109 0.15719347 0.07873543 0.030490711 -0.06911685 -0.0950266
-0.070878595 -0.033596843 -0.156954 0.12175292 -0.14187486 -0.014960539 0.14239395 0.117866
0.050632674 0.078416765 0.077807546 0.067846425 -0.16374199 0.064000785 -0.08197842 0.07347228
0.04074779 -0.06903554 -0.06459799 0.122005634 -0.044461373 -0.11921215 -0.067844294 0.06736446
0.0010299454 -0.03463819 -0.14844273 -0.09350916 0.084444456 0.050180975 -0.12027322 -0.09222281
-0.08503155 0.108692214 -0.1203835 0.06484683 0.01120847 0.05366949 0.018999368 -0.1367679
-0.12587765 0.044179305 -0.098527476 -0.07485688 -0.05058242 -0.12226044 0.08864177 0.09598109
-0.12370963 -0.04007473 -0.021307074 -0.027377125 0.0330294 0.0039174166 -0.0853187 0.00049752643
-0.00047765984 0.064013496 -0.10723506 -0.10774778 -0.05358238 -0.0069161183 0.10824217 0.051573317
-0.07190578 0.010631005 -0.046956692 -0.079000905 0.04518611 -0.04284191 -0.065404266 0.14098369
-0.09835594 -0.13288538 0.053689662 0.13326319 0.0839392 -0.04207595 -0.10939803 0.046283305
-0.024588868 -0.009898173 0.08020026 -0.06423593 -0.039113965 0.0013961351 -0.07738987 0.08544257
0.108742446 0.047321048 -0.11104641 -0.020550387 -0.019076353 0.056771316 0.031962376 -0.015354766
-0.10697987 0.15459217 -0.02409127 0.1298658 -0.045680724 0.11571094 -0.070433944 -0.043774668
-0.10633911 -0.036825415 -0.1026568 0.17323393 0.09572062 -0.110550284 0.1323407 0.046099108
0.09924913 -0.15570258 -0.062294092 -0.15099199 0.048928436 -0.07558923 0.00010262604 0.05370479
0.1210264 -0.013557614 0.017234694 -0.11607946 0.05177953 -0.14785129 -0.09287481 0.11312754
-0.13562566 0.0850736 0.088571884 -0.03169183 0.08313248 0.14788081 -0.14991781 -0.07974086
-0.028834376 -0.16609979 -0.07339177 0.03524518 0.13906348 -0.15149966 -0.031377893 0.014222814

encoder.rnn.bias_ih_l0_reverse f4 [192]
00000000: f71d 033e 6f67 a5bd 0cb7 e8bd 6e27 c6bd
00000010: 51f1 e9bd 6bc1 b13c d838 f9bd ca9e 6b3d
00000020: c7d2 bd3d b171 e9bb f7b0 1e3d b6c1 163e
00000030: 443f 1ebd 991d ecbd 807f f6bb 5968 8f3d
00000040: de93 d93d 0184 a03d e5bb 36bd a7c7 ec3d
00000050: 9664 9b3c e5f9 a8bd f75a 5d3d bb04 4e3d
00000060: b9d8 f8bb cac1 933c 58b7 113e 4eef 9f3d
00000070: 41a3 653d 046e f73c f998 8b3c eba6 be3d
00000080: f0db d03d 3c98 ab3d 2537 7c3d 2dc4 113b
00000090: 7822 5739 2aba 9f3d d94e a1bd 648f 37bc
000000a0: a7e3 d63c da49 cb3d ab46 9cbd 60a2 a23d
000000b0: 78d0 f0bc d80f 99bb 9c26 d63d 8873 093e
000000c0: 8040 7dbd 69d5 a83d ae41 8c3d 7797 80bd
000000d0: a06e 0a3e a312 e13d d42e 8b3d 21e0 e03c
000000e0: e873 193e e60d 2d3d c173 fa3c f3e0 fb3d
000000f0: 88f2 4c3d d613 d63a 47ed 323d d59a 09bc
00000100: f656 01bd f9cd 983d 67c9 3e3c 5ab9 ccbd
00000110: 65f5 c4bd 995f 9a3b 4ea5 493d 874a 58bc
00000120: 9e45 70bd 8e97 873d bc85 2dbd ea27 85bd
00000130: 4225 92bc 5adb a73c 0cf8 a43d 6149 1fbd
00000140: 3d6c 9dbd 83f6 1b3d 9389 613d f1a6 4ebc
00000150: 59a2 a33d df16 28bd bfd3 633d 6f95 bbba
00000160: 8eec 1b3e 514d 983d 52c6 ca3c 7c1a c1bd
00000170: 8b0e c5bd a9b3 2abc 3506 ea3c 40c9 ed3d
00000180: 4f03 613c 176b 893c 7ec0 1f3e 4c17 d63d
00000190: 592f 883d 6f3d b13d 0a13 65bd e543 23bd
000001a0: eb60 9e3c 508c 81bd 5fa1 e8bb 7f78 00be
000001b0: 9ff8 a4bd 2f46 a9bd 9b4f 333e d7c5 053d
000001c0: b02e ffbd 6674 3abc f5c3 fa3d f27f d33b
000001d0: 1496 b2bd 4e74 d9bb e611 01be e719 1fbc
000001e0: 6351 0fbc 2378 a23d 4feb d23d ca42 54bd
000001f0: 9a32 d83d 632c 6d3d 7a75 6cbd af87 09bd
00000200: bbdb 6c3d 3618 b0bd 6c9e 003e f9c0 a03d
00000210: 9dd8 053e 70d2 fd3d 7a15 6ebc 6381 1e3e
00000220: 0d21 46bd 9390 49bd 8a22 8b3c 2dc1 983d
00000230: 5099 12bd 5050 03be 6c47 babd bb66 0c3d
00000240: 01d5 ef3d 5d96 04be 0e0b 4fbd fce2 9cbd
00000250: de90 b03d 61f8 babd 812b 0abd 0712 e3bd
00000260: ed3d c83d ae1d e3bd dcba b5bd bbd3 fa3d
00000270: 1dfe 673d 7ee2 503c 9cc5 cd3d 1259 3f3d
00000280: aa2f ae3d a361 8cbc 80a0 143d b087 133e
00000290: c13a f7bd 1d7b dcbd 5fa2 16be 1979 0abd
000002a0: c572 90bd f219 213c f3b8 b53d 611e ee3d
000002b0: eba1 0a3d ef17 013e deb7 953d b5da 19bd
000002c0: 4537 a73d cd07 993d 263e 1d3c eb94 e1bd
000002d0: 4f50 e3bd 0430 07bd bb17 b13d 1435 ea3b
000002e0: 4091 25be bf46 f7bd 388d 113e 67fe 82bd
000002f0: cd5c 74bc f93c e9bd 2ebf 2a3e 1272 803c
0.128044 -0.08076369 -0.113630384 -0.09675489 -0.114229806 0.021698674 -0.12169045 0.05752448
0.09268718 -0.007124149 0.038742986 0.14722332 -0.038634554 -0.11529083 -0.0075225234 0.070023246
0.106239066 0.07837678 -0.044612784 0.11561518 0.018968862 -0.082507886 0.05404183 0.05029748
-0.0075941947 0.018036742 0.14230096 0.078093156 0.056063894 0.030203827 0.017040716 0.09309181
0.101982 0.08378646 0.061576027 0.0022242174 0.00020516838 0.0779918 -0.07876367 -0.011203621
0.0262316 0.099261954 -0.07630666 0.07941127 -0.02939628 -0.004671078 0.10456583 0.13422978
-0.06182909 0.0824383 0.06848465 -0.062788896 0.13518763 0.10989883 0.06796041 0.027450623
0.14985621 0.042249583 0.030572774 0.12298765 0.050035983 0.0016332816 0.043683317 -0.008398731
-0.031577073 0.07461161 0.011644698 -0.099962905 -0.09617118 0.004711103 0.049229912 -0.013201362
-0.058660142 0.06620704 -0.042363867 -0.06501754 -0.017840032 0.020490337 0.08055124 -0.03888834
-0.076866604 0.03807689 0.05506284 -0.012613044 0.0798995 -0.041037437 0.05562186 -0.0014311502
0.15226957 0.07436622 0.02475277 -0.094288796 -0.096219145 -0.010418811 0.028567413 0.11610651
0.013733699 0.016774697 0.15600774 0.10453662 0.06649656 0.08654296 -0.05592636 -0.03985967
0.019333323 -0.063255906 -0.007099315 -0.12545966 -0.08055233 -0.082653396 0.17510836 0.032659378
-0.12460077 -0.011380291 0.12244407 0.0064544613 -0.087200314 -0.006636179 -0.12604484 -0.009710765
-0.008747431 0.079330705 0.10298788 -0.051821508 0.105565265 0.05790366 -0.057729222 -0.033576664
0.05782674 -0.08598368 0.12560433 0.078493066 0.13070913 0.123936534 -0.014531488 0.15479045
-0.048371363 -0.049210142 0.016984243 0.0745872 -0.03579074 -0.12823606 -0.09095654 0.03427766
0.11710549 -0.12947984 -0.050547652 -0.07660481 0.08621381 -0.09129406 -0.033732895 -0.11087423
0.097774364 -0.11089645 -0.08873531 0.12247416 0.056638826 0.012749312 0.100474566 0.046715803
0.08505185 -0.0171364 0.036285877 0.1440723 -0.12071753 -0.107656695 -0.14710377 -0.033806894
-0.070531406 0.009832846 0.08873167 0.11626888 0.033845823 0.12606786 0.073104605 -0.03756209
0.08164839 0.07472191 0.009597337 -0.11014732 -0.11099302 -0.033004776 0.08647104 0.0071474407
-0.1616869 -0.120740406 0.14214027 -0.0639618 -0.014914704 -0.11388583 0.16674492 0.015679393

encoder.rnn.bias_hh_l0_reverse f4 [192]
00000000: e621 783d c03c ff3d 655a 383d 8b74 bebd
00000010: 4250 913d a84d 13be dd84 00be a3fd 133e
00000020: ce01 81bb fbe9 ad3d f736 acbd 5951 6c3d
00000030: 16b2 353e 0d97 1e3d b141 983c 53ad c03c
00000040: 024f 82bc cfe3 033e 61bb 14be 3170 d53d
00000050: 1459 79bd fd05 a13b 2a48 8eb8 8b0f ca3d
00000060: 72d8 093e e239 5e3d 67da 81bc 5128 a03d
00000070: 7304 af3d 4823 e53d 996e cd3c d2ae b8bc
00000080: 6e90 c23c 0a15 e23d 0595 57bd 06bd 3ebd
00000090: 30b6 e4bd 5f00 e13d 8851 9a3d 90ff 9f3d
000000a0: 10c3 12bc 03eb e7bd 0ecf 53bd b642 11bd
000000b0: dc3f bd3d 733f 203d 3195 8bbd b3cc cdbc
000000c0: faff 5f3d 84b6 c1bd 058b c33d 1ebe ca3c
000000d0: 6ffb 08bd d93a ee3d c332 db3d 325e a4bd
000000e0: 71fd e53d a84e 80bd d063 21be 7618 ce3c
000000f0: d833 c1b9 6017 a7bd f62a 243e be22 21bb
00000100: 6512 8c3d 9c39 39bd 17ca 19be 62a6 c0bd
00000110: 9667 80bc 6eca f53d 63f2 e6bd 0390 e63d
00000120: ab0a 7b3d 1e0e 12be f116 afbd c42d 8f3d
00000130: 7f0d cc3d b749 20be dada 6cbd ba31 723d
00000140: 5c14 913d 72a3 b43c 5476 20be f750 74bc
00000150: bbf0 adbc ec05 0cbd 41b2 543c 9328 a1bd
00000160: 3427 adba ebcb 163c 0416 fc3d 36bb 11bd
00000170: 6cd1 033e 9aa9 323e 9c93 dd3d 8ca3 e43d
00000180: 3d1a 06bd cfe5 633b 2a6d 3b3d dfdd 383c
00000190: e5f7 d83d 0ed2 da3d a446 d53c f3e6 27be
000001a0: 1a49 b5bc 2cf0 f8bd 4523 d73d 94a7 e3bd
000001b0: f382 543d e0fb 513d f46e 033e 28ee c23b
000001c0: 5ea1 e1bb 8c03 a13d 9ef2 eebd 9d19 003e
000001d0: 544f ff3c 64e1 b1bd c040 ee3c b55d 013d
000001e0: 5055 4fbd 8a8c 453d def2 ad3d 6db7 30bd
000001f0: f98e 023d ec87 023e 9472 21bc 0ee3 87bd
00000200: 534f 84bd 28ab a23d fa22 0f3e d9d5 72bd
00000210: ea45 80bb 2a93 703d 93f0 e1bd b073 2b3e
00000220: 465f d3bd 2e9d 833c 839c 083d a3ae 9d3d
00000230: a944 11be 2b01 40bd 6974 a6bc d931 8d3a
00000240: f454 c63d cd90 823d 9d45 8d3d db18 c5bd
00000250: af22 023e f517 b5bc ca90 b43c 62b5 e93d
00000260: a9ec 1f3e 7f8f 22bd 876f dfbd cd93 95bc
00000270: 1cf4 85bc 3556 f03d cf19 d13d d7b5 943d
00000280: 4ff5 98bc 3db3 853d e592 62bd d792 b0bb
00000290: 4b2d f23b fbd0 cb3c c238 423d c129 f63d
000002a0: 429d 883c f437 e8bd e3df d9bc bb10 bf3d
000002b0: a367 83bd 82e7 2c3c bcf9 a23d d632 513e
000002c0: 48b3 ffba 99d3 52bc 63ff a4bb f5e6 a53d
000002d0: acd0 983b edd6 483d f578 85bd 796c 923d
000002e0: 9ee9 6cbd b625 a9bd 664f fb3d 8bb9 443d
000002f0: d7d2 0dbd d61e 363d d731 d6bc 6637 a23d
0.060579203 0.12462759 0.045008082 -0.092995726 0.07095386 -0.14385092 -0.12550683 0.14452223
-0.0039369827 0.08491894 -0.08408921 0.057694767 0.17743716 0.038718272 0.018586012 0.023520147
-0.015906814 0.12879871 -0.14524604 0.104217894 -0.060875967 0.004914044 -6.784529e-05 0.09866246
0.13461474 0.05425442 -0.015851213 0.0782019 0.085457705 0.1118837 0.025077151 -0.022544298
0.02375051 0.11039169 -0.05263235 -0.046566986 -0.11167562 0.10986399 0.07535082 0.078124166
-0.008957639 -0.11324122 -0.051711135 -0.03546401 0.09240696 0.03912301 -0.068155654 -0.025122022
0.054687478 -0.0945864 0.09548 0.024748858 -0.03344291 0.11632318 0.107030414 -0.08025779
0.11229981 -0.062650025 -0.15760732 0.025158148 -0.00036850455 -0.08158755 0.16032013 -0.0024587358
0.06839446 -0.045220956 -0.15018497 -0.09406735 -0.015674394 0.12001501 -0.112767 0.11257937
0.06128947 -0.14263198 -0.085492976 0.06991151 0.09963512 -0.1565312 -0.0578259 0.059129454
0.07083961 0.022050593 -0.15670139 -0.014911882 -0.021232953 -0.034185335 0.012981952 -0.07869067
-0.0013210536 0.009203891 0.12308887 -0.03557893 0.12872857 0.1744751 0.1081917 0.111640066
-0.032739867 0.0034774428 0.045758404 0.011283367 0.10594157 0.10684596 0.02603466 -0.16396694
-0.022129584 -0.12155184 0.10504774 -0.11115947 0.051882695 0.051265597 0.12835294 0.0059488006
-0.0068856915 0.07862005 -0.11667369 0.1250977 0.031165756 -0.08685568 0.02908361 0.031583507
-0.05061847 0.04822973 0.08493589 -0.04314368 0.03187463 0.12747163 -0.009853978 -0.06635104
-0.064604424 0.07942802 0.13978186 -0.059285972 -0.0039145844 0.058734097 -0.11032214 0.1674335
-0.10320906 0.01606616 0.033352386 0.07699325 -0.14186348 -0.046876114 -0.02031918 0.0010772302
0.09684172 0.06375275 0.06898043 -0.096238814 0.12708543 -0.02210615 0.022041697 0.11411549
0.15617622 -0.03968763 -0.10909944 -0.018258953 -0.016351752 0.11735193 0.10210001 0.07261246
-0.01867166 0.065283276 -0.05531587 -0.0053885984 0.0073906532 0.024879923 0.04741741 0.12019683
0.016676549 -0.11338797 -0.026596015 0.09329363 -0.064162515 0.010553243 0.07957789 0.20429549
-0.0019508386 -0.012867832 -0.0050353273 0.08100692 0.0046635475 0.049033094 -0.06517211 0.07149596
-0.057839982 -0.08259146 0.122710034 0.04802851 -0.0346249 0.044463 -0.026146812 0.07920723
