checkpoints/best_seed0.pt (torch, 190197 bytes, 14 tensors)

encoder.norm.weight f4 [20]
000000 3e 37 82 3f fe 45 7c 3f 16 0a 7c 3f 8e 2b 84 3f
       1.0173109 0.985443 0.9845289 1.0325792
000010 2f 4e 6a 3f 55 16 6a 3f 85 a4 6b 3f 3e d6 62 3f
       0.9152555 0.91440326 0.9204791 0.8860816
000020 22 10 63 3f 85 09 67 3f d8 f5 69 3f e2 0e 6f 3f
       0.8869649 0.902489 0.9139075 0.93382084
000030 d5 cf 8b 3f b8 dc 83 3f 07 86 6e 3f 40 22 65 3f
       1.09228 1.0301733 0.9317326 0.89505386
000040 1b 54 63 3f e6 57 6f 3f 67 fd 71 3f 11 9b 68 3f
       0.8880021 0.934935 0.94527286 0.9086161

encoder.norm.bias f4 [20]
000000 12 c9 48 3d a1 f1 bb bc 64 08 c2 bc ca 10 10 3d
       0.04901988 -0.022942366 -0.023685642 0.03517226
000010 64 6e 0a bd 5c 2a 9f bc 55 45 34 bd d7 25 94 bd
       -0.033796683 -0.019429378 -0.044011433 -0.0723378
000020 3c 84 d5 bd 4d b5 66 bd eb 3e 8e bd 5b c3 04 bd
       -0.10425612 -0.056325246 -0.069455944 -0.032412868
000030 5c bf 47 3d 70 8c 91 ba f0 e3 80 bc c0 98 aa bd
       0.04876648 -0.0011104476 -0.01573369 -0.08329916
000040 0c bd 8b bd 24 de 9f bc 30 45 13 bd 8c fb 4e bd
       -0.06823167 -0.019515105 -0.035954654 -0.050532863

encoder.rnn.weight_ih_l0 f4 [192, 20]
000000 2d 95 4d bd e1 bc 8a 3d 7f af 21 bd f7 d0 26 be
       -0.050191093 0.06774307 -0.039474007 -0.16290651
000010 21 63 4a bd 4c 86 e9 3c a0 60 ef ba b6 c5 d8 3d
       -0.049410943 0.02850642 -0.001826305 0.10584585
000020 e1 d7 ea bb 6d 62 37 3d f4 b5 06 bd ab 78 02 bd
       -0.007166848 0.0447716 -0.032888368 -0.03185336
000030 f1 3a 88 bd 95 da 36 bc 70 be a3 bd 02 d9 60 3c
       -0.06651867 -0.011160512 -0.079953074 0.013723614
000040 54 97 5d 3d 48 79 93 3d 73 4b b2 bd cb 70 52 bd
       0.054099396 0.07200867 -0.08705797 -0.0513771
000050 39 f1 c2 3c e6 d3 a4 3d 44 d3 75 bc 72 aa 91 3d
       0.023796665 0.08048229 -0.015003983 0.07112588
000060 8a f2 1c 3d ae c8 92 3d d0 73 2d 3e 7b 9b 8a bd
       0.03831724 0.07167183 0.1693871 -0.06767937
000070 3c 10 ea bc 87 42 a9 3c 2a 74 81 3b 0f a7 24 3e
       -0.028572194 0.020661606 0.0039506154 0.16079353
000080 bc f5 00 be b6 14 db bd cf c1 ae bc 5e 3d 97 bd
       -0.1259374 -0.1069731 -0.02133265 -0.07384752
000090 01 0d c1 bc 7b bf 28 3e 47 88 e0 3d fe 2c e2 3d
       -0.023565771 0.16479294 0.10963493 0.11043738
0000a0 89 96 f7 3a c9 e6 90 bd fb c8 66 3c bd 76 d3 bd
       0.0018889467 -0.07075269 0.014086003 -0.10325382
0000b0 49 d9 35 be 7a 4b 20 be ce 82 4a bc 37 99 69 bc
       -0.17758669 -0.15653792 -0.012360288 -0.014257721
0000c0 1f 72 13 be ae 0a aa bd 8a 86 07 bc c0 2e ff 3c
       -0.14399002 -0.08302818 -0.008271823 0.031150222
0000d0 90 0a 3b 3e 46 16 18 3e e9 24 49 ba 6a 2d 18 be
       0.18265748 0.14852247 -0.00076730415 -0.14861074
0000e0 83 62 84 bd 04 02 40 be 4b 32 35 be d4 37 1c be
       -0.06464102 -0.18750769 -0.17694966 -0.15255672
0000f0 d0 f2 82 3b 61 d5 cd 3c 1e 6a 35 bd 5d 9f 4f 3d
       0.0039962307 0.025126161 -0.044290654 0.05068909
000100 37 2f 29 3d 9a 08 40 bd 6e 81 c3 bc e5 99 7d 3b
       0.041304793 -0.046883203 -0.023865428 0.0038696465
000110 be 0e 5c 3d 9f 1e cf 3d 3a a6 f2 bd 9a 8a 9b bd
       0.053724997 0.101132624 -0.118481115 -0.075947955
000120 78 b5 44 3e 1f 37 81 3e 60 5a 8c 3d 76 f2 c6 3d
       0.1920985 0.25237367 0.06853175 0.097142145
000130 4f 8b 01 bb ef 25 0d be 66 e0 8a bc 16 6d d6 bd
       -0.0019766872 -0.13784002 -0.016952705 -0.10470025
000140 59 62 04 be f9 3b 0a 3e af a0 c5 3d 4b ca e3 bd
       -0.12928142 0.1349944 0.096497886 -0.11122569
000150 6d fd 69 bd 7c 9b da bd cf d2 d6 bd 53 a3 14 be
       -0.05712645 -0.106741875 -0.10489427 -0.14515428
000160 03 8e 11 bd 6b 3d 17 be 4a 97 13 bd 87 44 c7 bc
       -0.035535824 -0.14769523 -0.036032952 -0.024324669
000170 af 22 5f 3e 07 4f 2e 3e 03 fc 3d be 3c e8 0d be
       0.21790574 0.17022334 -0.18553166 -0.13858122
000180 6a 8b c5 bc 33 58 6d bd c0 5a 3c be 56 44 23 be
       -0.02411433 -0.05794544 -0.18393993 -0.15944037
000190 8f a7 2c 3e 9a 45 24 3e 3d 79 72 bd de 47 c3 bd
       0.16860794 0.16042176 -0.059197653 -0.09535192
0001a0 53 07 17 be fe d3 f5 bc 75 c6 f6 bd 31 81 f2 bd
       -0.14748888 -0.030008312 -0.120495714 -0.118410476
0001b0 92 6c 04 bd a6 ba 03 bc 21 49 9f bd 13 ca 3b 3d
       -0.032330103 -0.008040106 -0.0777762 0.04584701
0001c0 e0 07 eb bd 1e cf 9d 3d 60 04 6a 3d 76 86 07 be
       -0.114761114 0.0770552 0.05713308 -0.13234887
0001d0 f5 00 5b bd 60 d6 a9 bc 94 21 b7 bb 1c c2 08 3c
       -0.05346771 -0.020732105 -0.0055887196 0.0083470605
0001e0 36 08 17 3d 7a ad c6 3c 3b ca b3 3c 41 f4 b5 bc
       0.036873065 0.024252642 0.021947017 -0.022211196
0001f0 61 a6 5f bd 26 ca bf bb fd 70 13 3d 7c 1f 28 3c
       -0.05460203 -0.0058529554 0.035996426 0.010261413
000200 4c 56 e2 3c 6d d9 38 bd 85 e3 28 3d 12 02 cf 3d
       0.02762904 -0.04512923 0.041232605 0.10107817
000210 e0 3f 83 be a3 5f 3b be fa 48 36 3e 83 1a 67 3d
       -0.2563467 -0.18298201 0.17801276 0.056421768
000220 26 28 9a 3d 2d c5 62 3d ea 7e c2 3d ec 54 1a 3e
       0.07527189 0.055363823 0.09496863 0.15071458
000230 03 82 fa 3c 64 1f a8 bb 70 91 99 3d 5c ee 8b 3d
       0.030579573 -0.005130695 0.07498443 0.06832573
000240 71 ae a2 bd 8d 2a ed bc 92 34 f3 3d c6 b7 01 3d
       -0.07943428 -0.028950954 0.11875261 0.0316694
000250 dd 4b 1d bd 3e 96 3f bd fe 84 a8 bd 9e 97 c9 bd
       -0.038402427 -0.04677414 -0.08228491 -0.09843372
000260 e2 8f d3 3d 8a 87 45 3e a4 dd f2 3d dc 0f c6 bd
       0.10330178 0.19289985 0.11858681 -0.09670994
000270 f2 e9 e0 3d 49 f3 85 bd 1f 0e 05 bb 7d 75 d7 bc
       0.109821215 -0.065405436 -0.0020302606 -0.02630114
000280 cf 02 2b bd 6f 66 a0 3c 41 5e c6 bd 59 f0 0d be
       -0.041750725 0.019580094 -0.09685946 -0.13861217
000290 01 c2 d7 3c 3a 4b 2e 3d 0d 84 21 bc b1 24 dd 3d
       0.026337625 0.04255221 -0.0098581435 0.10798014
0002a0 95 4a 37 bd 3e d7 1e 3d a4 b9 2e 3e a5 10 b1 39
       -0.04474886 0.03877949 0.17063004 0.00033772472
0002b0 61 79 12 3d 35 49 08 bd 16 e9 75 bd 37 dd 18 3e
       0.035760287 -0.03327294 -0.06003674 0.14928137
0002c0 3e a1 26 3d 86 e7 30 bc 49 3e 1a 3e 63 7c 38 bd
       0.040681116 -0.010797387 0.15062822 -0.0450405
0002d0 68 40 58 3d 3d 76 0d 3d 19 03 22 3e d8 f5 cb bd
       0.052795798 0.03453659 0.15821494 -0.09959
0002e0 0d 0f e1 3c 01 72 30 3c bf 9c 7c bd c9 49 53 bd
       0.027472997 0.010769368 -0.061672922 -0.05158404
0002f0 dd 28 05 be 03 3d 1c 3d 74 9a 8b 3d e7 79 60 3d
       -0.1300387 0.038144123 0.06816569 0.054803755
000300 a1 e9 34 be 63 1a a3 bd b1 0f f6 bd c6 0b c3 bd
       -0.17667247 -0.07964017 -0.12014712 -0.0952373
000310 a3 42 ca bd 84 a4 2a 3c 73 a8 d6 bd fa af f3 bc
       -0.09875991 0.0104152 -0.10481348 -0.029746998
000320 5a 74 78 3d 29 ce af 3d e1 c8 35 be 09 58 d1 bc
       0.060657836 0.08584244 -0.1775241 -0.025554674
000330 f5 b5 b3 bc 37 33 0f 3e 95 1e ca 3b cd ec 28 3e
       -0.02193735 0.1398438 0.0061681964 0.16496582
000340 7a 6e d3 3d c6 92 6e 3d a0 d9 59 3d 2c 80 bb 3c
       0.10323806 0.058245443 0.05318606 0.022888266
000350 d8 fc 84 bd 66 2c d7 bd 2c ec e9 3c f9 a0 56 3d
       -0.064935386 -0.10506515 0.028554998 0.05239961
000360 98 a4 31 bd 9b ee 8d bc 6a d9 19 3e 41 19 46 bd
       -0.04336986 -0.01732569 0.15024343 -0.048363928
000370 48 14 6d bd cd b3 de 3d 6b 62 73 3d 36 2e 05 3c
       -0.05788067 0.10874138 0.05942003 0.008128693
000380 74 53 45 be bc b5 f4 bc 67 fa 33 be c1 40 f9 bd
       -0.19270116 -0.029871814 -0.1757599 -0.12170554
000390 0a c7 fd bd 02 7f ae bd b7 51 a1 bd 22 51 90 3b
       -0.12391479 -0.085203186 -0.07876914 0.004404203
0003a0 4e df 3d 3e 1b f2 8e 3e 1f 5a 75 bb e5 14 0c be
       0.18542215 0.27919087 -0.003743775 -0.13679846
0003b0 ea 2d 03 bd 20 92 36 be 51 5a 14 be b6 6a 58 bd
       -0.03202621 -0.1782918 -0.14487578 -0.052836142
0003c0 81 11 19 bc ef ad a2 3d 1d ff 86 3d 62 65 23 bd
       -0.009342552 0.079433315 0.06591628 -0.039891608
0003d0 fa 23 b7 3d 19 a6 ca bd 16 5b ee 3d 74 10 94 bd
       0.08942409 -0.09894962 0.11638467 -0.07229701
0003e0 c7 2c 05 3d 18 9f ef 3b c3 95 1e bd 10 2f 2f 3d
       0.032513406 0.0073126666 -0.038717043 0.04276949
0003f0 fd 1e 02 3e 63 46 95 bc 37 6a 8d bc 26 70 3c bc
       0.12707134 -0.01822204 -0.017262561 -0.011501348

encoder.rnn.weight_hh_l0 f4 [192, 64]
000000 69 ae 39 be 6e 02 c4 bd 39 32 67 3c 7c 64 0f 3e
       -0.18132938 -0.09570776 0.014111095 0.14003175
000010 c9 af b5 3d 2a 2c 68 3d 59 8c aa bc 66 70 e6 3d
       0.08871419 0.056682743 -0.020818876 0.11251907
000020 66 74 02 3c f3 6f a0 3d 8d cb a4 3c c1 f5 4f 3d
       0.007962322 0.078338526 0.020116592 0.05077148
000030 ba 51 1f 3d 07 74 2a 3e 0a b0 01 3e c3 f6 c5 3c
       0.0388963 0.16645823 0.1266481 0.024165517
000040 c5 24 ad 3d ce 59 14 bc 89 53 09 3e 68 20 c5 3d
       0.08454279 -0.009054614 0.13410772 0.096253216
000050 6f 81 04 3e 47 dd bf 3b 0d 26 bd bd e9 76 6a 3d
       0.1294 0.0058552357 -0.09235773 0.057242308
000060 66 da 91 3d 22 cc 68 3d c6 3e e2 3d b5 8f 62 3d
       0.07121734 0.0568353 0.11047129 0.05531283
000070 55 cf 10 3e 18 00 d1 bd 38 ae b4 3d f4 7d 2d 3d
       0.14141591 -0.10205096 0.08822292 0.042356446
000080 8f c8 eb 3d 7d cf 05 3e 99 92 52 bd 8c 81 da 3d
       0.11512863 0.13067432 -0.051409338 0.1066924
000090 17 89 6e 3d 94 e9 a1 bc 38 0e 43 bd fe ff f9 bc
       0.058236208 -0.019764699 -0.047620982 -0.030517574
0000a0 23 47 07 ba 16 e7 6d 3d 3b 23 a8 3d 6f 6f 9e bc
       -0.00051604415 0.05808171 0.08209845 -0.019340245
0000b0 d1 b0 2f be 23 9b e4 3d 31 25 1c 3d 89 11 ea 3c
       -0.17157294 0.111624025 0.038121406 0.028572815
0000c0 0c c2 54 3d 38 53 14 3e 1e 69 83 bd 7c ce 27 bc
       0.05194287 0.1448487 -0.06416534 -0.010242101
0000d0 b2 90 74 3c 02 f9 47 bd 9c c7 58 bd a9 6b c1 bd
       0.014927076 -0.048821457 -0.052924737 -0.09444363
0000e0 41 ef 2a bd 5c f2 36 3d cd f5 14 3c 8e 1e 3f bd
       -0.041732077 0.044664726 0.009091807 -0.04666
0000f0 73 a6 09 3e 58 ec f5 bc 50 3b 01 3e 5e 57 95 3d
       0.13442402 -0.030019924 0.12620282 0.072920546
000100 87 c2 4b be 09 41 04 3e 16 4b 37 3e 0f 37 b6 bd
       -0.19898425 0.12915434 0.17899737 -0.0889722
000110 e5 9c aa bc 97 f9 2a bc 2b b2 66 3d cd dc 20 3c
       -0.020826766 -0.010435483 0.056322258 0.009818268
000120 a6 f1 a2 3b cc 13 74 bd ba 10 9b 3d 78 a2 67 3e
       0.0049726544 -0.059589192 0.0757155 0.2262057
000130 87 9e e0 bd 22 d3 0e be 4e be b9 bd 62 19 9e 3d
       -0.10967737 -0.13947728 -0.09069501 0.07719685
000140 e1 7d 94 bd 7f 64 52 bd 61 7a ac 3d a2 e0 92 bd
       -0.07250572 -0.05136537 0.084217794 -0.071717516
000150 33 d6 09 3e 04 b1 5b bd ec 5a 6f 3c 0c 83 f6 bc
       0.13460617 -0.053635612 0.01460908 -0.030091785
000160 0c e7 d5 bc 32 f9 8f 3d f4 45 fc 3d 62 d5 95 bd
       -0.026111148 0.07029952 0.1231803 -0.0731609
000170 a9 44 dc 3d 16 8b 95 3d 4c 22 b0 3c 70 6d ce bd
       0.107552834 0.07301919 0.021500729 -0.10079467
000180 10 cb 5b 3d dd 04 99 3d 4c 5d de bc 25 4e 50 bd
       0.053660452 0.07471631 -0.027144097 -0.050855774
000190 ac 85 d9 bd 1f 12 ea 3c 0a 1a 5b 3c 9a 81 f8 bb
       -0.10621199 0.028573094 0.013372907 -0.007583809
0001a0 f5 88 2b 3e ce 7f f8 bc 55 be ca bd 0f aa 9d bc
       0.16751464 -0.03033438 -0.09899584 -0.01924613
0001b0 4b f3 a0 bd 98 e7 3d bd 8c 5f 53 3d 85 36 cd 3d
       -0.078589045 -0.046363443 0.051604792 0.100201644
0001c0 f3 d3 ad bd b2 82 fb 3d ea 3c 9c 3d 49 c0 ab bd
       -0.08487692 0.122807875 0.07628806 -0.08386285
0001d0 17 b7 ee 3d 82 e0 d8 bc 98 00 b6 bd 18 28 ce bd
       0.11656015 -0.026474241 -0.08886832 -0.10066241
0001e0 f1 9a be bd 15 fb e2 3d ba 87 4e 3d 2b dd ff 3d
       -0.093068965 0.11083046 0.050422408 0.12493356
0001f0 16 9e 03 bd c1 f1 a6 3d 8d 9e ab 3c cb f8 77 bd
       -0.032133184 0.0815158 0.020949626 -0.06054
000200 dc 2f 8e 3d c8 ce 13 bd 50 2f 39 bd cc 0c 8a bd
       0.06942722 -0.036085874 -0.045211136 -0.06740722
000210 46 a7 12 be e1 8d dc bd 5a 61 03 3e 5f 35 a6 bd
       -0.14321622 -0.10769249 0.12830105 -0.081156485
000220 10 c6 60 3e 5f 23 84 bd 5f 52 49 bd 9e bf 5e be
       0.21950555 -0.06452059 -0.04915082 -0.21752784
000230 ce c2 ad 3c 98 bf b3 3d 7c a9 20 be 12 58 7f 3d
       0.021211054 0.08776778 -0.15689653 0.06233985
000240 2d 0b 1b be f1 33 2f bd cf 1d 1d be 06 d1 17 be
       -0.15140982 -0.042774145 -0.15343402 -0.1482583
000250 dc 0a 39 be 2d 56 4f bc dc fc f0 bc 52 49 9f bd
       -0.18070549 -0.012654823 -0.029417448 -0.077776566
000260 a5 d8 57 3c eb c8 07 3e f5 38 5a 3d a7 e2 db 3d
       0.013174211 0.13260238 0.053276975 0.1073659
000270 cb 28 5b 3c 32 8e 0f bd 7c 98 84 bc 6a da 1b 3e
       0.013376425 -0.035047717 -0.016185991 0.15220037
000280 e3 2d 02 bc 94 18 74 bd 96 4e 13 3c fc 9b 4c be
       -0.007945511 -0.059593752 0.008990904 -0.19981378
000290 1f 4e 11 3e aa c2 40 3c eb b0 90 bd c0 a9 21 be
       0.14189957 0.0117651615 -0.070649944 -0.1578741
0002a0 98 73 bf 3d 65 f3 94 3d 08 fd eb 3a 8b 7d 7a bd
       0.0934822 0.07272986 0.0018004486 -0.061154883
0002b0 91 66 cf 3d 95 d7 8e 3c 49 ed 9a 3c e2 24 48 3d
       0.10126985 0.017436782 0.018911975 0.0488633
0002c0 b0 33 07 3e a2 fd ae bc c3 90 00 3e c8 8b 93 bd
       0.13203311 -0.021361176 0.12555222 -0.072043955
0002d0 08 3c 72 bd 5f 2c e3 3d ac a9 7e 3d 16 94 be 3c
       -0.05913928 0.110924475 0.06217353 0.023263972
0002e0 11 6b 0b 3d 7f 34 c2 3c ea 32 2e be f6 8f 64 3d
       0.034037653 0.023706673 -0.1701161 0.055801354
0002f0 ce d5 b7 bd 1f 09 f1 bc e9 89 30 bd 59 07 3d bc
       -0.08976327 -0.029423295 -0.04310027 -0.011537396
000300 c0 76 09 bd 1b 0c 2b be 06 e0 78 3d 22 62 e1 bd
       -0.033560514 -0.16703837 0.06076052 -0.110050455
000310 df 2d bb bc 06 43 c4 3d 12 04 c4 3b 26 44 be bd
       -0.022849021 0.09583096 0.0059819305 -0.09290342
000320 36 7d 2f bc e0 f2 f0 3b eb 55 bd bd b8 9c 38 bd
       -0.010711005 0.0073531717 -0.09244903 -0.045071334
000330 a1 cb 9e 3d a3 b7 3e bd 76 b8 0d 3d d8 bd 13 bd
       0.07753683 -0.04656185 0.034599744 -0.03606972
000340 cb 83 8c bd cc 83 d5 bd af 52 a9 3c 0b 9e f2 bd
       -0.06861075 -0.10425529 0.02066931 -0.118465506
000350 23 47 f4 bc f7 7b 44 3d 8a 4d 81 3c b8 e2 64 bd
       -0.029819077 0.047969785 0.015784044 -0.05588028
000360 a2 8e 89 bd 7f 74 e3 3c f4 a1 e1 bd cc 4d 0a 3d
       -0.06716658 0.02776551 -0.11017218 0.0337656
000370 ea ff be bd 37 98 94 3d a2 07 2d 3d 8d f7 d6 3d
       -0.093261555 0.07255595 0.042243607 0.10496435
000380 32 1e 8c bd 3b 55 2b 3d fe bf ff bd 25 a3 29 be
       -0.06841697 0.04182933 -0.124877915 -0.16566141
000390 36 77 50 3c fe 31 21 be af 86 ba bd 0a 1c c6 3c
       0.012723735 -0.15741727 -0.0910772 0.024183292
0003a0 64 00 e9 3d 3b d0 a7 bd 0d 9a ba bc e5 bd a2 bd
       0.11377028 -0.08194014 -0.022778535 -0.07946376
0003b0 32 fc ff 3c 37 39 82 3c d8 5a 90 3c 24 bb cd 3d
       0.031248186 0.015896423 0.017621443 0.1004546
0003c0 a4 f2 4d bd e2 7c 49 bd 12 ac e3 bc 4f 63 4e 3e
       -0.05028023 -0.049191363 -0.02779201 0.2015507
0003d0 8d 74 e4 3d 48 ec 49 3e 88 c6 01 3e 7a 4a b1 3d
       0.11155043 0.1971904 0.1267339 0.086567834
0003e0 ed c7 bf bd b9 0f a8 bd 61 6b cb bb be 70 cd bd
       -0.09364305 -0.08206124 -0.006207869 -0.100312695
0003f0 39 85 ea 3c 45 37 c1 3d 9c 0a 6a bc 70 cb 9a bd
       0.028627979 0.0943437 -0.014284756 -0.07558334

encoder.rnn.bias_ih_l0 f4 [192]
000000 b0 c3 dc bd ef a8 75 bd 63 6d 88 3d a2 64 1d bb
       -0.10779512 -0.05997556 0.06661489 -0.002401628
000010 2a f6 ee 3d 2a 51 ef bd d2 4d 74 3c 52 dc 5d 3d
       0.11668046 -0.11685403 0.014911132 0.054165192
000020 65 f2 d9 bb 75 be f6 3c 38 d5 9c 3d ac 33 90 bd
       -0.00665121 0.030120114 0.07657856 -0.07041106
000030 a4 6d af 3c 4c 0e f9 3d c7 a7 71 3d 76 59 e7 3c
       0.021414585 0.1216093 0.058997896 0.0282409
000040 bc 2c 8e 3c dc b4 bc 3d 87 d4 1a bd ed 8c 8d bd
       0.017355315 0.09214184 -0.037800338 -0.06911645
000050 12 d9 ce bc a4 61 7d bc 61 60 15 be 44 1b 27 be
       -0.025249992 -0.015465174 -0.14587547 -0.16318995
000060 34 36 57 3d 21 ff 99 bd e2 00 e8 3d a1 8d d5 3d
       0.052541927 -0.07519365 0.113282934 0.10427404
000070 82 31 6e bb ec 0c 04 bd d6 f0 38 bd 77 27 bf 3d
       -0.0036345427 -0.032238886 -0.045151554 0.09333699
000080 a8 85 94 3d f4 ea d7 bd df d6 ea bd 3d 29 6b 3d
       0.072520554 -0.105428606 -0.11466765 0.057412375
000090 28 d4 7f bd 9e 35 42 bc f8 de 88 bd eb 80 c2 3d
       -0.062458187 -0.011853604 -0.06683153 0.094972454
0000a0 8f 8a b1 bd 67 cb 9c bc a2 d6 02 3e 96 fc 93 3d
       -0.08669006 -0.019139959 0.12777188 0.07225911
0000b0 c4 80 0e be 03 a3 e4 bd 97 84 82 3d 33 fe 81 bd
       -0.13916308 -0.111639045 0.06372946 -0.06347313
0000c0 db 24 fc 3d 36 2d 8d 3d e3 76 f3 3d 0d 17 e1 bd
       0.12311717 0.06893389 0.1188791 -0.10990725
0000d0 d1 b0 d4 3c ec e3 bc bd f2 ce aa bd 95 71 ed bb
       0.025963219 -0.0922316 -0.08340253 -0.007246206
0000e0 32 28 8b 3d 06 aa fb 3d c1 21 00 3e e8 23 95 3d
       0.06794776 0.12288289 0.12512876 0.07282239
0000f0 71 bd 3e be cf 06 28 3e 30 57 e4 3d 61 07 5d bd
       -0.18626954 0.16408847 0.11149442 -0.053962115
000100 53 6e 08 bd 9e c2 e5 3d 18 75 21 3e 6a 44 29 3d
       -0.03330834 0.11218761 0.15767324 0.04132501
000110 d3 69 40 3d a2 2b b2 3d 82 5f 95 bc 62 f5 c3 3c
       0.04697592 0.086997285 -0.018234018 0.023920719
000120 e7 4a 28 3e 0b 08 fe 3d 83 ce be 3d d0 59 8b 3c
       0.16434823 0.12403878 0.09316733 0.0170106
000130 9f 0d 82 3e b8 d6 61 3d d4 d1 25 3d 4d 59 42 be
       0.25401017 0.055136412 0.04048331 -0.18979378
000140 b1 ea 32 3e 80 07 0a 3e 66 f8 f2 bd 4e 1f 18 3d
       0.1747234 0.13479424 -0.118637845 0.03713923
000150 6d 17 43 3e 8a 9a e2 3d 81 ce 00 3e fc c5 8d 3d
       0.19051905 0.11064632 0.12578775 0.06922528
000160 32 82 62 bd 15 d9 0f 3e c5 cd c2 3d bb 38 47 3e
       -0.055299945 0.14047654 0.09511904 0.19455235
000170 41 40 c0 3d 9f 17 d0 3d 09 c4 ac 3d fd 05 47 be
       0.093872555 0.10160755 0.08435828 -0.19435878
000180 f2 c3 75 3e 0c 39 e6 3d f0 73 aa 3d 4a db a0 3d
       0.24000528 0.112413496 0.083228946 0.07854326
000190 23 17 b6 bd af 39 e7 3d 92 8e ef bc d8 3c 59 3e
       -0.08891132 0.11290299 -0.029242788 0.21214616
0001a0 40 f3 9f 3d e0 bb 9d bd 11 9a 5c 3e 16 f7 28 3d
       0.07810068 -0.0770185 0.21543147 0.041251265
0001b0 5f 87 95 3d 0e 0a c2 bd c9 d9 b0 3d 1f e4 09 3e
       0.073012106 -0.09474574 0.08635289 0.13465928
0001c0 81 34 0a 3e f7 63 2d 3e 56 11 55 3e ea de 34 3e
       0.13496591 0.16932665 0.20807394 0.1766316
0001d0 7a 72 ee 3d 50 8c 2d 3e 09 76 53 3d c9 1a 89 3e
       0.116429284 0.16948056 0.05162624 0.26778248
0001e0 73 0c 0e 3e db 23 b1 bc df 88 88 3d 5d 7b b1 3d
       0.13871937 -0.021623543 0.06666731 0.08666108
0001f0 59 6f ee 3d 77 fd d3 3d 5c 0f 5e 3e 70 05 84 3e
       0.11642332 0.10351079 0.21685547 0.25785398
000200 5e c5 6d bc c1 45 8b 3c 73 c7 d7 bd 4c c1 dd ba
       -0.014512388 0.017001035 -0.10536089 -0.0016918569
000210 92 ff 9f 3d a1 1d 54 bd a0 40 87 3b 64 55 fa bd
       0.07812418 -0.05178607 0.004127577 -0.12223318
000220 db 7f 5e 3d 4e ca 0c be 11 d9 a4 3c 98 6b f1 3d
       0.05432115 -0.13749048 0.020123037 0.117881
000230 ef 95 8d bc a3 f5 eb bd 3f 31 67 bd a4 63 94 bd
       -0.017283408 -0.11521461 -0.05644345 -0.072455674
000240 ff a5 6e bd dc 27 11 3e 57 76 99 bb d3 b6 33 3d
       -0.058263775 0.14175361 -0.0046832967 0.043875527
000250 60 b3 da bd eb 95 fe bc 78 b3 d1 3c b4 44 d0 bd
       -0.10678744 -0.031077346 0.025598273 -0.10169354
000260 b3 9b 9e bd 8b 1a 01 3e 10 07 e6 bd be d2 16 bc
       -0.07744541 0.12607782 -0.11231816 -0.009205518
000270 f6 79 01 be 8f 4e 92 3d a9 77 14 3e bf b3 4d 3d
       -0.1264418 0.0714389 0.14498772 0.050220247
000280 2c 31 ec 3d 8f 33 0f bd 26 2e 39 3c 5b 0b 06 3e
       0.11532816 -0.03496128 0.011302507 0.1309027
000290 63 2c 25 3e 16 0e f1 3d b8 e0 03 3e 42 ba dc 3d
       0.16130213 0.11770265 0.12878692 0.10777713
0002a0 fc df ff 3c a5 b6 be bd 42 83 f9 bd 82 4d d4 bc
       0.031234734 -0.093121804 -0.121832386 -0.025915865
0002b0 4f 0c b2 bd 09 49 dd bd 50 9c 98 bb ad 05 dd 3d
       -0.08693754 -0.10804946 -0.004657306 0.10792098
0002c0 05 fa c8 bd d5 17 f0 bd a0 85 cc 3d 9d 7c 42 be
       -0.098133124 -0.117232956 0.099864244 -0.18992849
0002d0 29 92 aa bd f9 47 19 3d ca f0 f5 bd 8b 0d 95 3d
       -0.08328659 0.037422154 -0.120088175 0.07277974
0002e0 0c 8d c1 bd 6d a7 99 3d dd 48 1c be 2d 9b 1d 3e
       -0.09450731 0.07502637 -0.1526217 0.15391226
0002f0 5d 6b a0 bc 9e e8 1d 3e 42 b4 2c bd 84 1d 85 3d
       -0.019582445 0.15420768 -0.042164095 0.0649977

encoder.rnn.bias_hh_l0 f4 [192]
000000 b8 b3 ac 3a 07 37 92 bd 31 ed 28 bb ad 0c bf 3c
       0.0013176119 -0.07139402 -0.0025776143 0.023321474
000010 74 e0 fa 3d df 70 5b bd f0 77 22 3d af b8 21 3e
       0.12249842 -0.05357444 0.039665163 0.15793107
000020 6f b3 8a 3d 65 5e 45 be af 9a e7 bc ad 0f b2 bd
       0.067725055 -0.1927429 -0.028272001 -0.08694396
000030 34 b9 23 be a0 11 08 3d d8 d2 37 3e 17 2c 24 3d
       -0.15988618 0.033219934 0.17951524 0.04008111
000040 0e bd 9a b9 8c dd a5 bd af c4 34 bd 4e fb 27 bc
       -0.00029514026 -0.08098897 -0.044132885 -0.010252787
000050 24 df d8 3c 25 0f be bc 38 41 f9 bd 7c 41 1b bb
       0.02647359 -0.02320058 -0.121706426 -0.0023690155
000060 a4 94 13 be 4e 8d 22 3d 30 88 15 3c 49 45 0e 3e
       -0.1441217 0.03968554 0.009126708 0.13893618
000070 33 4f ab bd d2 22 07 3e 79 1d f4 bc 19 1f c5 bd
       -0.083647154 0.13196877 -0.02979921 -0.09625072
000080 63 0c 12 bd eb 46 7a bc f0 15 8e bc 17 62 29 3d
       -0.035656344 -0.015275697 -0.017344445 0.04135331
000090 36 91 0f 3e 78 f4 31 3d fa fc 2f 3d 1d cc da bd
       0.14020237 0.043446034 0.042965867 -0.10683463
0000a0 a0 4f 62 bd d0 5a c7 bd 42 e4 85 3d ca a4 ce 3d
       -0.055251718 -0.09734118 0.06537677 0.10090025
0000b0 2d 73 ff bd 19 2c 29 bd 00 a5 27 bc 7d 2c b2 bd
       -0.1247314 -0.04130182 -0.01023221 -0.08699892
0000c0 09 20 7c bd 0c e8 e1 3d f3 17 28 bc 87 ef 00 be
       -0.06155399 0.110305876 -0.010259616 -0.12591372
0000d0 e0 ab 0f bc 08 27 d8 bd 4b 18 10 3e cc 5d 7f 3d
       -0.008769006 -0.105543196 0.14071767 0.06234531
0000e0 6a c1 a0 bd 1f 49 96 3d a5 d0 f5 3d c7 cf 12 bd
       -0.07849391 0.073381655 0.120026864 -0.035842683
0000f0 ed 51 67 bc 4a 55 20 bd bc 18 ee 3d 1b b0 88 3d
       -0.014118654 -0.039143838 0.116258115 0.066742145
000100 14 33 d8 3c 13 04 4a 3e e4 06 c9 3d f0 80 9b 3d
       0.026391543 0.19728117 0.098157674 0.07592952
000110 dd e1 68 3e e8 38 49 3e fa b1 3f bd 4b 27 a5 3d
       0.2274241 0.19650614 -0.04680059 0.08064135
000120 f2 70 ec 3d 0b 17 87 bd e0 2b 3b 3e 36 8d 19 3e
       0.1154498 -0.06596192 0.18278456 0.14995274
000130 23 9c 77 3d 04 ff e9 3d 0d ae ea 3c 4f 8d 89 3b
       0.060451638 0.114255935 0.028647447 0.0041977535
000140 4a 4d 11 3e 9e 6d a0 3d 64 c0 e0 bd 56 68 92 3d
       0.1418964 0.07833408 -0.109741956 0.07148807
000150 c1 d2 59 3e ba a8 06 3e 0d 2c c0 3d ae 44 c5 3d
       0.21271802 0.13150302 0.09383402 0.0963224
000160 ac d9 0a bd 74 75 2b 3c 1d 1f f5 3d 5f 42 dd 3d
       -0.033898994 0.010465015 0.11968825 0.10803675
000170 64 55 0e 3e cc 85 64 3d 39 fd af 3d 13 36 2b be
       0.13899761 0.05579166 0.0859322 -0.16719846
000180 aa 5d 03 3e ef 99 22 3e 4c ed 88 ba 69 96 49 3e
       0.12828699 0.15879034 -0.0010446697 0.19686283
000190 1d 41 86 3d e2 1d 88 3d 83 00 d1 bd 86 ee 28 3e
       0.06555388 0.06646325 -0.10205176 0.1649724
0001a0 4c 47 df bd 69 bf ad 3d 5f 3d 3f 3d 8b c7 f4 3d
       -0.10902271 0.08483774 0.046689387 0.11952122
0001b0 f8 e4 60 3e d6 57 e4 bd 0e 78 6e 3d b9 f1 59 3e
       0.21962345 -0.11149566 0.05821996 0.21283616
0001c0 e1 1c cf 3d 41 ea e9 3c d6 5d 89 3c 9f c4 f4 3d
       0.1011293 0.028554084 0.016768377 0.11951565
0001d0 ee 12 bb 3d 5a 68 12 3e d3 1f fc 3d 82 18 5a 3e
       0.0913447 0.1429762 0.123107575 0.21298411
0001e0 0a 71 48 3c 4e 6b fb 3d 76 e9 60 3e c5 27 ac bd
       0.012233982 0.12276326 0.21964058 -0.08406023
0001f0 71 fa f7 3d f0 0b 11 bd 22 48 04 3e 37 40 18 3d
       0.12108315 -0.035411775 0.12918141 0.037170615
000200 cd 03 b8 3d 21 ee bd 3d a3 7c 13 3d 53 4c ae bd
       0.089851 0.09273935 0.036007535 -0.085106514
000210 f5 6c 80 3c 57 f5 8e 3d 71 0c 6c 3b d4 29 33 be
       0.015676955 0.069803886 0.0036018158 -0.17496425
000220 63 83 26 3d f5 fe 79 3d 0a 5d bb 3d ef 2f 9a 3d
       0.040652644 0.06103416 0.09148605 0.07528674
000230 2b 04 c7 3d d2 49 1f be 0f 55 70 bd d9 4c 9b 3d
       0.09717592 -0.15555504 -0.05867487 0.07583017
000240 21 26 b2 bc a0 15 b0 bd c9 61 29 be b8 c2 80 3d
       -0.021746697 -0.08597875 -0.16541208 0.0628714
000250 49 b0 15 3c 56 57 1a 3c 89 5f 56 bd a3 44 de bc
       0.009136268 0.009420237 -0.052337203 -0.027132338
000260 8e a0 f1 bd 99 86 a5 3d 2b 51 d8 bd 3f 14 af bc
       -0.117982015 0.08082313 -0.105623566 -0.021371959
000270 0d 6d d0 bd 43 28 b7 bd 75 49 29 3d dc ef 5a 3d
       -0.1017705 -0.08943226 0.04132982 0.053451404
000280 d7 24 b7 3d 45 71 96 3d 55 59 bc bc 62 a5 51 3d
       0.089425735 0.07345823 -0.022991816 0.051183112
000290 5f e0 07 3c e5 c0 d0 bd fe a9 f7 ba 04 15 d0 3d
       0.00829324 -0.10193042 -0.0018895266 0.101602584
0002a0 f0 5c 5a bc 56 29 2a bd 97 88 28 be ee 03 db bd
       -0.013327822 -0.041543327 -0.16458355 -0.10694109
0002b0 e7 2f 42 3b a7 ba b5 3d 26 c5 7b bd b4 d9 9b bd
       0.0029630603 0.08873492 -0.061467312 -0.07609883
0002c0 d0 eb a5 3d 66 32 c3 bb a4 a1 ab 3d e9 ff 89 bd
       0.08101618 -0.0059569357 0.0838044 -0.06738264
0002d0 79 bd d1 3d da 51 82 3d 16 2f a0 bd 16 85 41 3d
       0.10241217 0.06363268 -0.07821481 0.04724606
0002e0 13 10 6a 3c 5a aa 2e 3e 66 ac 0d be 42 44 07 3e
       0.014286059 0.17057171 -0.13835296 0.13209632
0002f0 95 f8 2f 3a 8e 4b 7a 3d 57 5e c2 ba 06 da 73 bd
       0.0006712762 0.06110721 -0.0014829141 -0.059534095

encoder.rnn.weight_ih_l0_reverse f4 [192, 20]
000000 f8 52 11 be 58 96 12 be 8c 01 06 3e d2 9f c4 3d
       -0.14191806 -0.14315164 0.13086528 0.09600796
000010 ab 0d d7 bd fc 0f ea 3b 26 75 24 3d 97 5d 23 be
       -0.10500654 0.007143019 0.040150784 -0.1595367
000020 e2 38 e2 bc ac c3 cb ba 6e f8 06 be f1 90 b9 bd
       -0.027615014 -0.0015545986 -0.13180706 -0.090608485
000030 c4 fe 54 3e 9e 0d 5e 3e 57 d4 fe bc e6 90 92 3d
       0.2080031 0.21684882 -0.03110711 0.071565434
000040 28 c5 d5 3c 89 58 b7 bd 29 35 e0 bd 60 93 39 3d
       0.026094988 -0.089524336 -0.109476395 0.045306563
000050 d2 7c 5a 3c 87 f0 db 3d be 69 9e 3c a5 0e 68 bb
       0.013335424 0.10739236 0.019337531 -0.003540912
000060 cd 60 64 bb 24 fa 0c be c7 1e 13 bd 0e 77 8a bb
       -0.0034847737 -0.13767296 -0.035918023 -0.004225618
000070 53 a4 03 be fa 4b 53 3d 4f 68 73 bd 4b 03 1a be
       -0.12855653 0.05158613 -0.05942565 -0.15040319
000080 30 15 ff 3d 96 72 c3 3c b2 34 18 be ff 54 2f bd
       0.12455213 0.02385835 -0.14863852 -0.042805668
000090 22 af bf 3b 9b 69 88 3d 9a 90 3e bd 4b 7d 56 3d
       0.005849735 0.06660768 -0.04652462 0.052365582
0000a0 0f 0f a0 3c 38 91 c1 bd 7e d2 28 3d 2f 4a 41 be
       0.01953843 -0.094515264 0.041216366 -0.18875955
0000b0 e8 28 3c 3d e4 97 29 3e 3f fb 9c 3d 1c eb 7f 3d
       0.04593745 0.16561848 0.07665109 0.062480077
0000c0 7c fe 25 3d 98 f1 19 3e 46 93 3d 3e 36 83 bd 39
       0.0405259 0.15033567 0.18513212 0.0003614665
0000d0 7f 29 93 3d 19 55 82 bd 67 7e 3f 3e 0e d8 86 3d
       0.07185649 -0.06363887 0.18700562 0.06584178
0000e0 77 8a a0 3c 36 54 24 3e 84 b5 dd bc ca 47 0e 3e
       0.019597275 0.16047749 -0.027064092 0.13894573
0000f0 75 20 ab 3c 4d 54 03 bd ed d3 3c bd f2 2c 22 be
       0.0208895 -0.032062817 -0.046100546 -0.15837458
000100 06 ce 9f 3c 35 d0 93 3d ea 3e 68 3c 2f 77 3d bc
       0.01950742 0.07217447 0.014175156 -0.01156406
000110 5b d5 a8 bc b6 2e 2e 3d 32 4c cf 3d ba ac b8 3c
       -0.020609548 0.042525016 0.10121955 0.0225433
000120 37 6c 55 be aa 67 34 be e1 a1 29 bd d0 f2 54 3d
       -0.20842062 -0.1761767 -0.041414145 0.051989377
000130 b8 d9 1b bd 52 4c 82 3d 59 35 1d 3c 2e b8 f6 3d
       -0.03804943 0.06362213 0.009595239 0.12046848
000140 d3 f6 07 be f2 b7 a1 bd 66 26 b3 3d 73 53 14 bd
       -0.1327775 -0.07896413 0.08747558 -0.036212396
000150 c8 8e 21 be 94 b7 13 be 4e 6f de 3c 71 59 34 3d
       -0.15777123 -0.14425498 0.027152684 0.04403061
000160 3f 86 b3 3c ad bf 54 3d f1 bb 1c 3c c2 95 f7 3c
       0.0219146 0.05194061 0.009566293 0.030222777
000170 e6 60 13 3e 71 00 75 3c ae b1 c9 bd ff c5 1c 3d
       0.14392433 0.0149537185 -0.09848343 0.03827476
000180 e4 9b 85 bd 81 d2 34 3d 9a 60 5e 3d 8b 4c f7 3c
       -0.065238744 0.044146065 0.054291345 0.030187866
000190 47 f1 2d be 2a c2 cf bd a5 84 38 3e ef a1 a9 bb
       -0.16986571 -0.10144456 0.1801935 -0.0051767747
0001a0 92 d3 42 3e 2c 71 20 3e 8f 81 2a bd f9 74 f3 3d
       0.1902602 0.15668172 -0.041627463 0.11887545
0001b0 a3 5b ec 3d bb 44 94 3d a3 ec 31 3e 1c a7 82 3c
       0.11540916 0.07239672 0.17375426 0.015948825
0001c0 a5 fe 36 3e d6 d2 19 3e 92 54 0b 3e fe 9f 56 3e
       0.17870577 0.15021834 0.1360648 0.2095947
0001d0 7b 7d d8 3d e4 6f de 3c 96 be a3 3a 79 34 4e 3e
       0.105708085 0.027152963 0.0012492712 0.20137204
0001e0 73 28 76 bd 6d f5 03 3d 20 48 b9 3d 1a 96 ba bd
       -0.06009717 0.03221648 0.0904696 -0.09110661
0001f0 5e c7 25 3c 59 31 ae bc 3d cc 7e bd 48 65 ff 3d
       0.010118334 -0.021263765 -0.062206496 0.1247049
000200 1f bd 0d 3e 9d 0b a4 3d 9e 3d 5f b9 49 b0 c1 3d
       0.13841675 0.080100276 -0.00021289891 0.09457452
000210 09 7e db 3d 4a 24 3c bd bc 82 93 bd 7c eb b1 bd
       0.10717399 -0.045933045 -0.0720267 -0.08687493
000220 09 a9 36 bd 12 3a af bd eb 06 28 bd ae 1b a1 bc
       -0.0445948 -0.08555998 -0.041022222 -0.019666519
000230 59 bd 62 3d 97 03 52 3e 19 10 8d 3d 33 72 4f 3d
       0.055356357 0.20509182 0.06887836 0.05064602
000240 d6 fa 11 be 99 7f 20 be c2 d9 a1 be 76 80 68 be
       -0.14255843 -0.15673675 -0.3161145 -0.22705254
000250 15 76 e3 bd 94 fa 39 be 58 79 1d be ab 34 b6 bd
       -0.11106507 -0.18161994 -0.1537832 -0.08896764
000260 54 c1 16 3e 5a 5c d0 3d b2 8e 13 be a5 3a a3 be
       0.14722186 0.10173865 -0.14409903 -0.3188068
000270 8d bd 70 be 01 a9 3f be b2 c9 54 be 79 8f ab be
       -0.23509808 -0.18716814 -0.20780066 -0.33507898
000280 c9 c7 1c be 2a e0 94 3d be b1 15 3d 51 79 aa 3c
       -0.15310587 0.072693184 0.03654646 0.020809801
000290 18 62 11 3e 16 2a 11 3e 61 7d 35 3e b2 13 1f 3e
       0.14197576 0.14176211 0.1772361 0.15534857
0002a0 2c eb b1 3d 2f 9d ae 3d a0 89 10 3d 30 e1 26 3e
       0.086874336 0.08526074 0.0352875 0.1629684
0002b0 c2 7b d0 3d cc e1 b8 3d 7e 38 39 3d ef ed 29 3e
       0.10179855 0.09027442 0.04521989 0.1659467
0002c0 93 bb 10 3d 69 2d cb bc 2f ab 54 3e 7c 07 2b 3e
       0.035335135 -0.024801927 0.20768426 0.16702074
0002d0 f2 32 e9 bd a0 09 bc 3b a1 f6 af 3d f5 7c 24 bc
       -0.1138667 0.005738452 0.085919626 -0.010039558
0002e0 03 fe cd 3c b3 9a 56 3d 1d c7 79 3d 51 40 78 3c
       0.025145536 0.052393626 0.060980905 0.015152053
0002f0 e1 e6 a5 3c e5 df 3e bd bc 7c 5d 3d 6c 5f e3 bd
       0.020251693 -0.04660024 0.054074034 -0.11102185
000300 3c 83 33 3e 8e ff ff 3c 7f d3 90 bd 76 ab 8d 3d
       0.1753053 0.031249788 -0.0707159 0.06917469
000310 9f fa 86 bd 9e 99 1c bd 1a 0c 35 bd de e4 6e bd
       -0.06590771 -0.03823244 -0.044200994 -0.058323734
000320 2c 66 17 be 7a f3 0d be 4b 14 f9 bc f8 b0 21 bd
       -0.14785069 -0.1386241 -0.030405184 -0.03947541
000330 6a 45 d8 3d 22 2d 33 3e 96 45 2c 3e ca 83 2f 3e
       0.10560115 0.17497686 0.1682342 0.17140117
000340 c0 a4 2d 3e ee 39 26 3e b9 26 5f 3e 65 42 29 3e
       0.16957378 0.16233036 0.21792115 0.16529234
000350 5c be 34 3d 43 0e 18 3d 69 e7 1d 3e 0c 88 3a 3e
       0.044126853 0.037122976 0.15420307 0.1821596
000360 39 4f 83 3e c1 dd f7 3d 53 e1 29 3e b0 7f 04 3e
       0.2564638 0.12102843 0.1658986 0.12939334
000370 bb d5 0b 3e de cb 9d 3d 70 54 2d bd 1d 82 c9 bc
       0.1365575 0.077049 -0.042316854 -0.024598176
000380 0b b2 15 be ab 3b 49 bd ca f5 0c 3d 84 4b 08 be
       -0.14618699 -0.04912917 0.03441409 -0.13310057
000390 b5 b8 a3 bb a0 ac a0 bd 3d 27 19 bc 90 c9 23 bd
       -0.004996384 -0.078454256 -0.009347734 -0.039987147
0003a0 8f ff b9 3d 06 19 f6 3d 23 48 fa bc 74 7a 5a bd
       0.09081947 0.120164916 -0.030551976 -0.053339437
0003b0 49 5d 5e 3d b1 93 1c be 8a 11 78 bd 91 a5 35 be
       0.054288182 -0.15290715 -0.0605636 -0.1773894
0003c0 77 dc 84 bd ed d9 04 be 6d a5 80 bd 3f 3b 59 3d
       -0.06487363 -0.12973757 -0.062815525 0.053035017
0003d0 b2 e4 30 3c fe 4e f8 bc 83 bd 69 bd 0b 4f 86 3b
       0.010796713 -0.030311104 -0.057065498 0.004098778
0003e0 18 54 60 bd 25 52 33 bb 37 a4 ec 3d 28 9e c3 3d
       -0.054767698 -0.0027362194 0.11554759 0.0955165
0003f0 a4 6a ee 3c 07 d9 6e bd e4 78 b9 bd 1c 68 79 bd
       0.029103585 -0.058312442 -0.09056261 -0.060890302

encoder.rnn.weight_hh_l0_reverse f4 [192, 64]
000000 40 8e 50 bc 3b 9a f5 bd 40 c7 db bd 5c 59 cc 3d
       -0.012729228 -0.11992308 -0.10731363 0.099779814
000010 10 30 1e be a1 f9 43 3d f8 e5 60 3e c0 7a e7 3d
       -0.15448022 0.047845487 0.21962726 0.113027096
000020 c7 07 44 3d e2 2d a2 bd f7 9e 45 bc 05 c6 dc 3d
       0.04785898 -0.07918908 -0.012061826 0.10779957
000030 a4 07 92 bd 4c ab 20 3e 43 c1 66 3d 13 11 0e bd
       -0.071303636 0.15690345 0.056336652 -0.034684252
000040 47 90 34 bd ea 5b 61 3d df 52 f2 bd 69 56 aa 3d
       -0.044082906 0.055019297 -0.11832213 0.08317263
000050 fb ce b8 3d 2e 9a 0b be 98 c9 0c 3e f0 54 f6 3d
       0.090238534 -0.13633034 0.13748777 0.12027919
000060 7f 28 8b 3d b9 5b fe 3d a2 72 e9 3d 95 5a 87 bd
       0.067948334 0.124198385 0.113988176 -0.06609074
000070 fa 38 21 3c f4 4f 66 3c 47 f0 b3 bd 23 93 fc ba
       0.009840244 0.014057148 -0.08786064 -0.0019269924
000080 c9 29 f1 3c 97 1d 12 3d 89 58 12 be ab 6f d1 3c
       0.02943887 0.03567275 -0.14291586 0.025565943
000090 de 2f 22 3d 05 8a aa 3d 69 f3 45 3d 50 35 77 3d
       0.03959643 0.083271064 0.048327837 0.060353577
0000a0 01 06 34 3d 79 23 9d 3d 2c b5 17 bd 49 dc 0d bd
       0.04395104 0.076727815 -0.037038013 -0.03463391
0000b0 ba 6e 96 3d 7b 54 70 3d 45 70 b5 bc d3 a5 51 3d
       0.07345338 0.058674317 -0.02214826 0.051183533
0000c0 07 3b 2f bc 4a d9 6a bc dd b9 15 bd 09 ec 1b 3e
       -0.010695226 -0.014334032 -0.036554206 0.15226759
0000d0 e5 f7 c4 bd d1 e2 eb 3c d8 2a e6 3d e2 9a 6b bc
       -0.09617595 0.028794678 0.112386405 -0.014380189
0000e0 9d 52 56 bd 67 c3 2e 3e b3 a8 81 3b 38 3c 54 3d
       -0.05232488 0.17066728 0.003956878 0.05181524
0000f0 cd d8 dd 3c 33 05 7f bd 21 a8 98 3c 44 c1 4a ba
       0.027080918 -0.062260818 0.018634858 -0.00077344873
000100 f6 46 6a 3c da 05 03 be 1b 9d b0 3d db 64 40 3c
       0.014299145 -0.12795201 0.086237155 0.011742796
000110 8e db 88 bc 2b bf 30 3d 9c 5d f9 3d cc 13 13 3e
       -0.016706254 0.043151062 0.12176058 0.1436302
000120 4c e9 4e bd 73 0f ee bd dc 19 7e 3c 11 4c 50 bd
       -0.050515458 -0.116240405 0.015509095 -0.050853793
000130 6d 14 11 3d db 79 10 bc d3 93 2d 3d f3 b0 f7 3d
       0.03541987 -0.008818115 0.042377304 0.12094297
000140 c4 47 c5 bd ef ac ed bd b3 13 c0 bd 05 41 0f 3d
       -0.09632829 -0.1160525 -0.09378757 0.034974117
000150 18 18 f3 3b a8 53 d0 3d 25 2e 05 3e 1c 46 65 bd
       0.0074186437 0.10172206 0.13005884 -0.055975065
000160 ee b1 10 3d 52 7d ac bc 17 13 75 3d d7 e4 36 bd
       0.035325937 -0.021055851 0.05983266 -0.044651832
000170 cb ab 04 bd ec e4 74 3d c5 a5 fb 3c 3d f8 ac bd
       -0.032390397 0.05978863 0.030718694 -0.08445785
000180 f4 7b 43 3c 84 59 d3 3d 61 a6 e4 bd 24 93 14 3e
       0.011931408 0.10319808 -0.11164547 0.14509255
000190 85 ae 84 3b 51 bf 61 3c 91 fd d8 bc 62 67 fa bc
       0.0040491247 0.013778524 -0.026488097 -0.030566875
0001a0 89 11 ed bc 65 5d 15 bd 36 b1 c2 3c bf 19 21 3e
       -0.028939025 -0.03646602 0.023766141 0.15732478
0001b0 9d a2 9c 3d ad 8b 08 3d 25 dd a6 bd a4 97 a1 bd
       0.076482035 0.03333633 -0.08147649 -0.07890251
0001c0 0c e4 88 bd 47 86 13 bd 40 05 24 be 1a e3 07 3e
       -0.066841215 -0.03601673 -0.16017628 0.13270226
0001d0 ac da 1c be a7 df b5 bc b0 88 53 3e ef 8b df 3d
       -0.15317792 -0.022201372 0.20657611 0.10915362
0001e0 87 a6 9a 3d c0 8d bc 3d 35 29 ab 3d 82 bb 7b 3d
       0.07551294 0.09206724 0.08357469 0.06145812
0001f0 74 9f 39 be 7b 08 83 3d 00 98 d0 bd ff db 98 3d
       -0.18127233 0.06398102 -0.10185242 0.07463836
000200 2b f5 e7 3c 0e 67 83 bd 78 ac 98 bd 24 92 ff 3d
       0.028315147 -0.064161405 -0.07454771 0.12479046
000210 96 5f 34 bd de 2f e6 bd 9a cd 9b bd ca c5 91 3d
       -0.04403647 -0.11239599 -0.07607575 0.071178034
000220 06 f8 96 3b f5 c5 52 bc a7 6a 27 be e1 e8 d6 bd
       0.0046072034 -0.012864579 -0.16349278 -0.10493637
000230 cb ee dc 3d 3b 31 92 3d df e4 03 be f9 bc e0 bd
       0.10787734 0.07138296 -0.12880276 -0.10973544
000240 2e 68 bd bd c9 ce d8 3d 10 7f 0e be 1f 50 97 3d
       -0.09248386 0.10586316 -0.13915658 0.07388329
000250 75 c2 d2 3b 15 d4 45 3d f7 a1 0b 3c ca 4f 13 be
       0.0064318725 0.04829796 0.008522502 -0.14385906
000260 92 8d 10 be 5b 50 ec 3c 66 af c9 bd 11 bc 71 bd
       -0.14116505 0.02884691 -0.09847908 -0.059017245
000270 6d c2 6f bd 13 05 17 be c0 cb b8 3d a5 10 b0 3d
       -0.05853503 -0.1474803 0.09023237 0.08596925
000280 0b 0b 1d be d3 d3 52 bd 5f bd 7b bb 0c d5 47 bd
       -0.15336244 -0.051471543 -0.0038412435 -0.04878716
000290 98 af 23 3d 01 c6 ae bb c6 af 90 bd 8a bf 18 bd
       0.03996238 -0.0053336625 -0.07064776 -0.03729204
0002a0 1b aa 97 3c 9a cf 5e 3d 6b af f3 bd 14 b3 e2 bd
       0.01851373 0.054397203 -0.11898693 -0.11069313
0002b0 56 f0 8c bd eb 6a 62 3b f8 41 b8 3d 11 2b 58 3c
       -0.06881778 0.0034548591 0.089969575 0.013193862
0002c0 e9 27 b3 bd 0a f1 06 3d 80 25 5b bc f2 88 be bd
       -0.08747847 0.032944717 -0.01337564 -0.09303464
0002d0 f0 71 7e 3d db 4f d0 bc 21 fa 80 bd 95 66 dd 3d
       0.062120378 -0.025428703 -0.06297708 0.108105816
0002e0 0d c5 e3 bd 8d d1 16 be 89 38 23 3d 6c 59 19 3e
       -0.11121569 -0.14728375 0.039848838 0.14975518
0002f0 18 6e ea 3d 2a 7c 4c bd 14 f9 e2 bd c0 12 3f 3d
       0.1144678 -0.0499231 -0.11082664 0.04664874
000300 5f 94 cd bc de 04 8d bb 19 51 80 3d 69 52 65 bd
       -0.025095163 -0.0043035587 0.06265468 -0.055986796
000310 77 b6 f4 bb 2a b8 ac bc 64 14 1c be fd 6e a9 3d
       -0.0074680406 -0.02108391 -0.15242153 0.082731225
000320 5d cf d8 3d 9b a7 1a 3d d3 a3 03 be 3f 18 2b bd
       0.105864264 0.037757497 -0.12855463 -0.04177117
000330 7a ba 7a bb cb 28 7a 3d 33 4e 45 3d 72 21 ce bc
       -0.0038258121 0.06107406 0.04817028 -0.025162432
000340 ec 59 de bd df 64 f0 3d ef 81 d1 bc 3b a7 fc 3d
       -0.10856995 0.1173799 -0.025574652 0.12336584
000350 6c 2a 48 bd 27 19 06 3e ea 05 70 bd c6 96 73 bd
       -0.04886858 0.13095532 -0.05859939 -0.05946996
000360 4e 58 f0 bd 1b 83 9e bd b3 85 bb bd db f9 3e 3e
       -0.11735593 -0.0773985 -0.091563605 0.1865
000370 14 f3 77 3d 7d 86 05 be 01 96 fd 3d f6 b3 0d 3d
       0.06053455 -0.13039584 0.123821266 0.034595452
000380 2d c3 c2 3d d1 a4 37 be 1c 3a 6e bd 88 0d 25 be
       0.09509883 -0.17933966 -0.058160886 -0.16118443
000390 b0 32 39 3d da 7e 9a bd 3a 62 d3 3a 35 21 3e 3d
       0.045214355 -0.07543726 0.0016127296 0.046418387
0003a0 ff 3a 0a 3e 95 b0 04 bd cc fa 3e 3c 14 e4 ea bd
       0.13499068 -0.032394964 0.011656474 -0.11469284
0003b0 48 9a 98 3d 4e 2f f7 bd 21 4e c4 bd 51 43 be 3d
       0.07451302 -0.120695695 -0.095852144 0.09290183
0003c0 45 1f 2f be e0 31 d3 3d f5 a2 c9 3d 84 48 2f bd
       -0.17101772 0.10312247 0.09845535 -0.042793766
0003d0 0a 57 d9 3d 77 7c 2b 3e fc a5 45 be 28 d3 95 bd
       0.106123045 0.16746698 -0.193016 -0.073156655
0003e0 6d 64 cb bc 11 55 37 be 09 a7 8d bd cf 0e 49 3d
       -0.02482816 -0.17903544 -0.06916625 0.04908639
0003f0 9a 9b 24 3e c3 ed 1e be 10 7d 0a bd ea 90 3a 3d
       0.16074982 -0.15520386 -0.033810675 0.045548357

encoder.rnn.bias_ih_l0_reverse f4 [192]
000000 ef 2d f8 3d 0c 90 9e bd a2 9a fb bd ef 72 e0 bd
       0.12118136 -0.077423185 -0.12285353 -0.10959422
000010 74 39 17 be 50 f2 91 3d d3 a2 3c be dc 27 89 3d
       -0.1476801 0.071262956 -0.18421488 0.06697056
000020 13 15 66 3d 38 d1 59 3a 67 ec a1 3c 4e 6a 12 3e
       0.05617244 0.0008309069 0.019766046 0.14298365
000030 7e de 1b bd d2 fe 1b be 09 96 18 bd 78 de 88 3d
       -0.038053982 -0.15233925 -0.03725246 0.066830575
000040 ff ef db 3d 40 f5 63 3d 60 c1 39 bd a0 13 d4 3d
       0.10739135 0.05565381 -0.045350432 0.10355306
000050 e9 47 36 3c 08 b6 7e bd 3b ef cb 3c 7e b1 c0 3c
       0.011125543 -0.062185317 0.024894347 0.023522135
000060 95 d6 76 bc c5 86 d0 bc 67 84 23 3e 4b f6 29 3d
       -0.015065809 -0.025454888 0.15968476 0.04149465
000070 3e 52 3c 3d 07 1d 04 3b 3b df bb bb 9e fc a2 3d
       0.04597687 0.0020158903 -0.0057333983 0.07958339
000080 01 b8 d0 3d 53 4f 64 3d 68 98 61 3d 11 54 03 bc
       0.10191346 0.055739712 0.055076987 -0.008015648
000090 7c 63 81 3d 7b 8c 7d 3d df a0 a5 bd ae 0b 21 bd
       0.06317803 0.06190155 -0.08087324 -0.03931778
0000a0 34 b8 c3 3c 86 f2 ac 3d 1d 0a ce bd 56 c8 94 3d
       0.023891546 0.08444695 -0.10060523 0.072647735
0000b0 4c c8 93 bd db 98 8d bb bd 0f d8 3d c4 bb 34 3e
       -0.07215938 -0.0043212003 0.10549877 0.17649752
0000c0 90 60 e6 bd ef 67 ab 3d 55 45 a6 3d 94 2c f5 bd
       -0.112488866 0.08369433 0.08118693 -0.11971393
0000d0 af c7 03 3e 5a 99 ce 3d d0 80 51 3d 6d 67 8c 3c
       0.12869142 0.10087843 0.051148236 0.017139161
0000e0 43 3e 1b 3e d5 a2 34 3c 53 89 90 bc a7 f3 d1 3d
       0.1516047 0.01102515 -0.017643606 0.10251551
0000f0 7c 4e 23 3d 43 28 fa bc 0d aa aa 3d a3 70 18 bd
       0.03986977 -0.030536776 0.08333216 -0.037216794
000100 26 79 99 3c c8 94 e5 3d ff 7e 3c bc d6 54 2a bd
       0.018734526 0.112100184 -0.011504888 -0.041584812
000110 c4 c4 94 bd ab f7 12 3e 93 d1 84 3d 9e 38 ac ba
       -0.072640926 0.1435229 0.064852856 -0.0013139432
000120 ae 18 0d bd 13 5a e6 3d bb 2a 14 bd 87 5d dc 3c
       -0.034447365 0.11247649 -0.036173563 0.026900066
000130 81 ad 2a bc b8 80 7c 3d eb f1 b5 3d 2e b2 8e ba
       -0.010417343 0.061646193 0.08884033 -0.0010886842
000140 e6 61 2c bd d4 d7 83 3d de 6d 07 3b 34 7a 3b bc
       -0.04208555 0.0643765 0.0020664851 -0.01144271
000150 f2 c4 f9 3d 25 1d 86 3b 31 a4 c9 3d fd be 28 bd
       0.121957675 0.00409283 0.0984577 -0.041197766
000160 cf c8 58 3e f3 88 75 3d 08 6b 0a 3d 77 c6 c0 bd
       0.21170352 0.059945058 0.03379348 -0.09412854
000170 d2 0c a0 bd 64 6a 84 3d 5b 35 42 3d 61 1d 2c 3e
       -0.07814945 0.06465605 0.047414165 0.16808082
000180 20 6d ef 3c 6a d3 02 3d 15 d1 55 3e 2e 9a 02 3e
       0.02922684 0.0319399 0.2088054 0.12754127
000190 1f e2 ad 3d be 52 d6 3d 20 ba fb bc 59 26 ac bd
       0.08490395 0.104650006 -0.0307284 -0.08405752
0001a0 5e 33 25 bc 37 5f 21 3c 7a af c0 3c d0 57 d8 bd
       -0.010083048 0.009849361 0.023521174 -0.10563624
0001b0 14 ea 94 bd c9 c7 39 3d 8f a2 71 3e 93 60 d7 3c
       -0.07271209 0.045356546 0.23597167 0.026291167
0001c0 b5 ba 16 be 2b d9 d6 bb 02 48 12 3e 70 55 a8 3b
       -0.1471966 -0.00655665 0.14285281 0.005137138
0001d0 24 4e c4 bd 7d 34 24 3d 20 7a f0 bd fe 13 78 bb
       -0.09585217 0.04008912 -0.117420435 -0.0037853713
0001e0 8f d2 8d bc 07 4b 95 3d 0e 3c 77 3d 6d e3 76 bd
       -0.017312316 0.07289701 0.060360007 -0.060275484
0001f0 15 bc 06 3e bd c8 d1 3c 6c 65 3a bd 84 5c 5d bd
       0.13157685 0.025608415 -0.04550688 -0.054043308
000200 fa 6d 02 3d 9c 22 8c bd 9c ec 03 3e 63 00 96 3d
       0.031843163 -0.06842539 0.12883228 0.073242925
000210 8b 85 0d 3e 1c ee d6 3d d0 23 8c bc 2a 7a 34 3e
       0.13820474 0.104946345 -0.01710692 0.17624727
000220 da 2e f0 bc 24 ed 01 bd aa 1b 0b 3c 4a 58 89 3d
       -0.029319216 -0.031720296 0.008490482 0.06706293
000230 07 33 38 bd 22 6e 0c be c7 c8 be bd cb 4d c1 3c
       -0.04497054 -0.13713887 -0.09315639 0.023596665
000240 26 2c fd 3d c9 a5 02 be 0c f1 2d bd 43 73 b1 bd
       0.12361936 -0.12758555 -0.04246621 -0.086645626
000250 c2 d8 5c 3d 0d 0f da bd 4f 92 62 bd a6 2a 09 be
       0.053917654 -0.10647402 -0.055315312 -0.13395175
000260 58 1c cf 3d 7c 6b 00 be cf 3b cc bd 0a aa fd 3d
       0.10112828 -0.12541002 -0.09972345 0.12385948
000270 36 88 03 3d 7a bc 84 bb c8 a8 da 3d 9c 5d d9 3c
       0.032112323 -0.0040507885 0.10676724 0.026533894
000280 05 09 cb 3d 09 0c ef bc dd f5 54 3d 07 37 1a 3e
       0.0991383 -0.029180543 0.051992286 0.15060054
000290 66 96 f0 bd 9d 51 fc bd 03 05 21 be 75 ca 38 bd
       -0.11747436 -0.12320254 -0.15724568 -0.045114953
0002a0 98 52 62 bd 5f 23 4f bb 63 b1 96 3d ab 1d d2 3d
       -0.05525455 -0.0031606776 0.073580526 0.10259565
0002b0 57 e8 5a 3d d4 ea 06 3e 7f 2e 78 3d 32 9c a1 bc
       0.053444233 0.13175517 0.060591217 -0.0197278
0002c0 13 6e 63 3d c4 c2 92 3d e7 2d 4d 39 81 11 fc bd
       0.055524897 0.07166055 0.00019567423 -0.12308026
0002d0 71 c6 ea bd 3d d8 e4 bc 04 18 95 3d fb a2 34 3b
       -0.11463631 -0.027935142 0.07279971 0.0027562964
0002e0 36 d5 29 be d3 af 05 be a5 d2 17 3e 5c 54 54 bd
       -0.1658524 -0.13055353 0.14826448 -0.051838264
0002f0 f2 5e 7f 39 1e ed f9 bd 97 2c 37 3e 65 72 d3 3c
       0.00024354065 -0.1220343 0.17888103 0.025811384
